state/nell_v1/nell_v1.70.ckpt (torch, 96482 bytes, 19 tensors)

encoder.conv1.weight f4 [32, 32]
0	0x3e8f63cc	0.28005826
1	0x3e79ed0a	0.2440683
2	0xbe2683e4	-0.1626125
3	0x3cef63a6	0.02922232
4	0x3e0f8667	0.14016114
5	0xbe264027	-0.1623541
6	0x3ea82ed1	0.32848218
7	0x3ea5b024	0.32360947
8	0xbe35555e	-0.17708346
9	0x3d1a89cf	0.03772908
10	0xbc924ac7	-0.017857922
11	0x3e7c7e27	0.24657498
12	0xbc159d3b	-0.009131725
13	0x3e6ad5fa	0.22933188
14	0x3b4d5ffd	0.003133773
15	0xbe237fe0	-0.15966749
16	0xbe6119b4	-0.21982461
17	0x3e9b9dce	0.30393833
18	0xbdc46400	-0.09589386
19	0x3e2f3342	0.17109397
20	0xbe40e848	-0.18838608
21	0x3e5ab12b	0.21356647
22	0x3e4da84b	0.2008373
23	0x3e4808bb	0.1953458
24	0x3e46f9e1	0.19431259
25	0xbe7538c7	-0.2394744
26	0xbd97e8b3	-0.07417431
27	0x3dfab54e	0.122416124
28	0xbe045a76	-0.12925133
29	0xbe15e640	-0.14638615
30	0x3daeb261	0.08530117
31	0xbdec73b2	-0.11545505
32	0x3ea1436f	0.3149676
33	0xbc7f6af5	-0.015589465
34	0x3e1c34e6	0.15254554
35	0x3d415169	0.04719678
36	0xbdbccc9d	-0.092187144
37	0x3d82c7c9	0.06385762
38	0xbe05efbd	-0.13079734
39	0xbe6aa8be	-0.22915933
40	0x3d0da0f4	0.034577325
41	0xbdac01a9	-0.08398754
42	0xbdc1eab7	-0.094685964
43	0xbdb117a5	-0.08647088
44	0xbe3cb860	-0.18429708
45	0xbdb7250c	-0.08942613
46	0x3e4457dd	0.19174142
47	0x3dd834e8	0.10556966
48	0x3d306983	0.043069374
49	0x3e91d8af	0.2848563
50	0xbcfee868	-0.03111668
51	0xbe1d3ee8	-0.15356028
52	0x3e978519	0.29593733
53	0xbe5eb734	-0.21749574
54	0x3dc6f115	0.097139515
55	0x3e466267	0.19373475
56	0x3ea2af8b	0.31774554
57	0x3e3341d3	0.17505579
58	0xbe499492	-0.19685581
59	0xbde95330	-0.1139282
60	0x3e71218b	0.23547952
61	0x3e9b4ff0	0.30334425
62	0xbbd4bb0d	-0.0064920248
63	0x3df808e5	0.121110715
64	0xbe42fe4a	-0.19042316
65	0x3e949a58	0.29024005
66	0xbde7951a	-0.11307736
67	0x3e5a7c7f	0.21336554
68	0xbde9635a	-0.11395903
69	0xbe766bc1	-0.24064542
70	0x3dda5dcb	0.10662421
71	0x3da37d09	0.07982833
72	0x3d484f94	0.048904017
73	0xbe1230e4	-0.14276463
74	0x3e097182	0.13422206
75	0x3ebeed11	0.37290242
76	0xbe021fba	-0.12707415
77	0xbdf11a67	-0.11772614
78	0x3e863dda	0.26219064
79	0x3e85eaf2	0.26155812
80	0x3e4aee85	0.1981755
81	0x3cbd947f	0.023142098
82	0x3e6fba94	0.23411018
83	0x3e4617bd	0.19344993
84	0x3dbfbb5e	0.09361909
85	0x3e9669ea	0.2937768
86	0x3e1915d4	0.14949733
87	0xbd68ffde	-0.05688464
88	0xbcd45baa	-0.025922615
89	0xbe7455b4	-0.23860818
90	0x3e902618	0.28154063
91	0xbdf4dab6	-0.11955778
92	0xbcad2f25	-0.021140644
93	0xbdfd2fa3	-0.123626016
94	0xbe194794	-0.14968711
95	0xbd509677	-0.050924744
96	0x3ea277f6	0.31732148
97	0x3aa5b770	0.001264317
98	0x3b4bf33c	0.003112032
99	0xbe5f4185	-0.21802337
100	0xbde3ff39	-0.11132664
101	0xbcbc972e	-0.023021307
102	0xbdef0c64	-0.11672285
103	0x3e7d4d4e	0.2473652
104	0xbe1e3e9e	-0.15453574
105	0x3e843f41	0.2582951
106	0x3e30a6ad	0.17251082
107	0x3d4506fe	0.04810237
108	0x3dbdb29f	0.09262585
109	0x3d24f885	0.04027607
110	0xbd058b5f	-0.032603618
111	0x3bc2bfa8	0.0059432574
112	0x3d3cf8cc	0.04613571
113	0xbe2bfcc7	-0.16795646
114	0xbde518d9	-0.1118638
115	0xbde0ebf0	-0.109825015
116	0x3e8cc676	0.27495164
117	0x3e29a1a0	0.16565561
118	0x3d6516df	0.055930015
119	0x3c09937f	0.008396982
120	0xbe750030	-0.23925853
121	0xbe97075e	-0.29497808
122	0xbe8fb1b6	-0.2806527
123	0x3d1c5b47	0.038172986
124	0x3df16d3a	0.117884114
125	0xbdcf4f41	-0.10122538
126	0xbe18590f	-0.14877723
127	0xbd740856	-0.059578262
128	0x3e0eb399	0.13935699
129	0x3c09bca4	0.008406792
130	0xbc74be22	-0.014937909
131	0x3e9289a7	0.28620645
132	0xbcfe65c5	-0.031054387
133	0x3e7daa62	0.24772027
134	0x3e5136b6	0.20431027
135	0xbd01d0f5	-0.031693418
136	0x3d150df4	0.03639026
137	0x3e04cde0	0.1296916
138	0x3e4b246a	0.1983811
139	0xbd224d6d	-0.03962462
140	0xba4b3bd9	-0.00077527534
141	0x3e12cefe	0.14336774
142	0xbe3c657d	-0.1839809
143	0x3e130b98	0.14359891
144	0x3e38e302	0.18055347
145	0xbe4a746f	-0.19770978
146	0xbe3dbb7b	-0.1852855
147	0xbdb2f5f3	-0.08738317
148	0x3e796ed1	0.2435868
149	0x3e4b45f4	0.19850904
150	0xbe135506	-0.14387903
151	0x3ed59931	0.41718438
152	0xbcba8a7d	-0.022771114
153	0x3e1c8192	0.15283802
154	0xbe6b2006	-0.22961435
155	0xbde3dc8b	-0.111260496
156	0xbda1837e	-0.07886408
157	0x3def6bf8	0.11690515
158	0x3e02bb39	0.12766732
159	0xbd361936	-0.044457637
160	0xbd91128a	-0.07083614
161	0xbe43dab9	-0.19126405
162	0xbe972a10	-0.2952428
163	0x3e767bb9	0.24070634
164	0xbe86041e	-0.26175016
165	0xbe1e80ea	-0.15478864
166	0xbda40cda	-0.08010264
167	0xbd6876c9	-0.056753907
168	0xbddacfdb	-0.106841765
169	0x3e12d95d	0.1434073
170	0xbe76659f	-0.24062203
171	0x3cfe79fd	0.031064028
172	0x3e6c01a8	0.23047507
173	0xbe397484	-0.18110853
174	0xbe52705b	-0.20550673
175	0x3e634e9f	0.2219796
176	0xbdfa177e	-0.12211512
177	0xbce54f91	-0.027992042
178	0xbe066cf7	-0.13127504
179	0xbe5fa7ae	-0.21841308
180	0x3e5e4c33	0.21708755
181	0xbe2b028f	-0.16700195
182	0x3d8597a4	0.06523064
183	0x3e0cae80	0.13738441
184	0xbe8baceb	-0.27280363
185	0x3dae853b	0.085215054
186	0xbce5c384	-0.02804733
187	0xbd23bc26	-0.039974354
188	0x3e2dfded	0.16991396
189	0x3ce3d975	0.027813653
190	0x3d5fae75	0.054609735
191	0x3d2eeafb	0.042704564
192	0x3d7a2b6f	0.061076578
193	0xbd96ba50	-0.07359755
194	0x3ec34da7	0.38145182
195	0x3d96d0aa	0.07364018
196	0x3e8fb1c7	0.2806532
197	0xbc98e42d	-0.01866349
198	0xbdadccf0	-0.08486354
199	0x3e4bdf1f	0.19909333
200	0x3dcb3df3	0.09923925
201	0x3eb6ae24	0.35679734
202	0xbe6c5718	-0.23080099
203	0x3e517e78	0.204584
204	0x3ea8783a	0.32904226
205	0xbe15f330	-0.1464355
206	0xbcf05ed3	-0.02934209
207	0x3e8844c6	0.2661497
208	0xbdd4e94d	-0.10396061
209	0x3e8ff235	0.28114477
210	0xbd1b4378	-0.03790614
211	0xbda54295	-0.0806934
212	0x3e63654b	0.22206609
213	0x3ea3e4e0	0.32010555
214	0xbb7ba639	-0.0038398637
215	0x3dd32641	0.10310031
216	0x3eb29b80	0.34884262
217	0x3dced7a8	0.10099727
218	0x3dced872	0.100998774
219	0x3e539dd4	0.20665675
220	0x3d99c3df	0.075080626
221	0x3e09d3e1	0.13459732
222	0xbcd2e0fa	-0.025742043
223	0xbdfd9072	-0.123810664
224	0xbe93616d	-0.28785267
225	0x3e68b10a	0.22723785
226	0x3e4ece8c	0.20195979
227	0xbd093b68	-0.03350392
228	0xbb552b51	-0.003252704
229	0x3e75d682	0.2400761
230	0x3d975009	0.07388312
231	0xbe19a2bf	-0.15003489
232	0xbdc2f776	-0.09519856
233	0xbe032aa8	-0.12809241
234	0x3c40e33b	0.011772926
235	0x3cdf8ccb	0.027288815
236	0x3dc9ddb8	0.098567426
237	0x3c620cef	0.013797029
238	0xbe31edaf	-0.17375825
239	0x3e0b527d	0.13605686
240	0x3e34943e	0.17634675
241	0x3c36cefb	0.011157746
242	0xbe3c55e4	-0.1839214
243	0x3e3c2368	0.18372881
244	0x3e87842e	0.26468033
245	0xbd760a4c	-0.060068414
246	0x3e7abe3d	0.24486633
247	0x3d22ec39	0.03977606
248	0xbd6c2d72	-0.057660528
249	0x3deb24a3	0.11481597
250	0x3e698d79	0.22807874
251	0xbe94e93d	-0.29084197
252	0x3e0898e3	0.13339572
253	0x3e1b5ce2	0.1517215
254	0xbcf0579e	-0.029338654
255	0xbe6411e8	-0.22272456

encoder.conv1.bias f4 [32]
0	0xbd5a952e	-0.053364925
1	0xbda81854	-0.08207765
2	0xbe2331d9	-0.15936984
3	0xbe019a7e	-0.1265659
4	0xbdabc76f	-0.08387648
5	0xbd88a9f7	-0.06673043
6	0xbde67845	-0.11253408
7	0xbd508357	-0.050906505
8	0xbd83bfda	-0.06433077
9	0xbdf236f6	-0.11826889
10	0xbc8bbd87	-0.017058147
11	0xbdef1e47	-0.11675697
12	0xbd1e9eaa	-0.038725533
13	0xbdc4b245	-0.09604315
14	0xbe0d7223	-0.13813071
15	0xbce6031c	-0.028077655
16	0xbd980722	-0.074232355
17	0xbdf99a11	-0.12187589
18	0xbe058b90	-0.1304152
19	0xbe13ef02	-0.14446643
20	0xbd73350b	-0.059376758
21	0xbd66e497	-0.056370344
22	0xbdab0e54	-0.08352342
23	0xbc4ed911	-0.012624995
24	0xbc651442	-0.013981881
25	0xbd8a3b33	-0.067495726
26	0xbd7cceb2	-0.061720558
27	0xbc380eec	-0.011234026
28	0xbd61fc39	-0.05517218
29	0xbc94f11c	-0.018181376
30	0xbddd4d40	-0.1080575
31	0xbd131170	-0.0359053

encoder.conv2.weight f4 [32, 32]
0	0xbe5447c0	-0.20730495
1	0x3e4f0fd1	0.20220877
2	0x3e813aef	0.25240275
3	0x3ccbf1f2	0.024895642
4	0x3e583f80	0.21117973
5	0xbe35d44b	-0.17756765
6	0xbdda70e4	-0.106660634
7	0x3d9f628d	0.07782469
8	0x3d4eeae2	0.05051697
9	0xbd4ffac0	-0.050776243
10	0xbdd136a9	-0.10215504
11	0xbc6f7e42	-0.014617505
12	0x3e702a80	0.23453712
13	0xbe063c15	-0.13108857
14	0x3c01dff1	0.007926927
15	0xbe245e72	-0.16051653
16	0xbd574b4e	-0.05256205
17	0x3c9d254a	0.01918282
18	0xbdad553f	-0.08463525
19	0xbd25a5ec	-0.04044144
20	0xbd1893e9	-0.037250433
21	0x3e026808	0.12734997
22	0x3dd61ffb	0.104553185
23	0x3d257f57	0.040404644
24	0x3ddca24e	0.10773145
25	0xbdcdd739	-0.10050816
26	0xbdab20f0	-0.08355892
27	0xbdae6c95	-0.08516804
28	0xbd6be087	-0.057587173
29	0xbcdf8d0b	-0.027288934
30	0x3eaae217	0.33375618
31	0xbb9a04b1	-0.0047002663
32	0xbe7249a2	-0.23660901
33	0xbdf31dc0	-0.11870909
34	0x3daae441	0.08344317
35	0xbe88570a	-0.26628906
36	0xbdf18b0a	-0.11794098
37	0xbd39d8ce	-0.045372777
38	0xbd8fa359	-0.07013578
39	0x3d15bf4d	0.03655939
40	0xbe4e5bfc	-0.20152277
41	0x3df5eb26	0.12007742
42	0xbe17d669	-0.14827885
43	0x3b5d2ed6	0.003374984
44	0xbcca5916	-0.024700683
45	0xbdf37704	-0.11887935
46	0x3e378aa8	0.17923987
47	0x3dcd47cb	0.10023459
48	0xbdeee490	-0.116646886
49	0x3cb4a1fa	0.022049893
50	0x3e84e461	0.2595549
51	0xbd5b26f2	-0.053503938
52	0xbe874697	-0.26421043
53	0x3e1f86cd	0.15578766
54	0x3dabe8ed	0.083940364
55	0xbe83f181	-0.2577019
56	0xbe605115	-0.2190593
57	0x3ea1a0e2	0.31568056
58	0x3e6c9aff	0.23106001
59	0xbdcf5cdc	-0.101251334
60	0xbe0b67a4	-0.13613755
61	0xbb9f0eac	-0.004854044
62	0x3b0ef080	0.002181083
63	0xbd3dc5a6	-0.04633107
64	0xbd9400cb	-0.07226714
65	0x3c90702c	0.017631613
66	0xbde1b604	-0.11021045
67	0xbe0edad5	-0.13950665
68	0x3d0beacd	0.03415947
69	0x3dfc45c2	0.12317993
70	0xbe8d3238	-0.27577376
71	0xbd287c19	-0.041133974
72	0x3d20a52f	0.03922003
73	0xbc1a463b	-0.009416158
74	0xbd1f3509	-0.038868938
75	0xbcfc7853	-0.030819094
76	0x3e810dce	0.25205845
77	0xbd28eff9	-0.04124448
78	0xbe412436	-0.1886147
79	0x3d9455fe	0.07242964
80	0x3e839a8f	0.25703856
81	0x3d85879d	0.06520007
82	0xbe84da5d	-0.25947848
83	0x3e8e3e6c	0.27782
84	0xbe12cc25	-0.14335687
85	0x3e2c2baf	0.16813539
86	0x3cbcb8de	0.02303737
87	0xbe0254ec	-0.12727708
88	0xbe6ef7e0	-0.23336744
89	0xbc82ee6d	-0.01598283
90	0x3e92ba4a	0.28657752
91	0x3ca9b68a	0.020716924
92	0xbe1327b9	-0.14370622
93	0x3e5b4afe	0.21415326
94	0xbde470eb	-0.1115435
95	0x3e6491df	0.2232127
96	0xbdd2033c	-0.10254523
97	0xbddf7acc	-0.109120935
98	0xbe2467fd	-0.16055293
99	0x3e08cb4a	0.13358799
100	0xbd5723ca	-0.052524365
101	0x3e93421d	0.28761378
102	0x3e2f28f5	0.17105468
103	0x3e8cfc97	0.2753646
104	0x3d5e5a8f	0.054285582
105	0xbe7bfb85	-0.24607666
106	0x3e4b4d72	0.19853762
107	0xbe272520	-0.16322756
108	0x3e2ee937	0.17081152
109	0x3e2fee02	0.17180637
110	0x3d8fa2c5	0.07013468
111	0xbdf55233	-0.11978569
112	0x3e403c5c	0.18773025
113	0xbe0c20c5	-0.13684376
114	0xbe778358	-0.24171197
115	0xbe9f0d5e	-0.31064886
116	0x3dd36022	0.1032107
117	0xbd6a43fd	-0.057193745
118	0xbdf270ea	-0.11837943
119	0xbc7b9974	-0.01535641
120	0x3d8c8fd4	0.068633705
121	0x3e48a7b2	0.1959522
122	0x3c846b80	0.016164541
123	0x3e0b25fa	0.13588706
124	0xbe244d35	-0.16045077
125	0xbe00f229	-0.12592377
126	0xbe4fafa7	-0.2028185
127	0x3e029cd0	0.12755132
128	0xbe38abba	-0.18034258
129	0x3d61ba21	0.055109147
130	0x3d29bd2d	0.041440178
131	0xbe2609ca	-0.16214672
132	0xbe63a655	-0.2223142
133	0x3e0bd658	0.13655984
134	0xbcddc9ad	-0.027073706
135	0xbe3965ed	-0.18105288
136	0xbd301093	-0.042984556
137	0x3ea459d7	0.32099792
138	0xbdcb0918	-0.09913844
139	0x3e2eafa4	0.17059189
140	0x3db686a2	0.08912398
141	0x3dd5cac9	0.10439069
142	0x3e572564	0.21010357
143	0xbdd200ea	-0.102540806
144	0x3e190fc8	0.14947426
145	0xbc393014	-0.011302967
146	0x3b8abbe1	0.0042338227
147	0x3dc9c8a8	0.09852725
148	0x3ea65f66	0.32494658
149	0xbe341b87	-0.17588626
150	0xbe440f1b	-0.19146387
151	0x3e443974	0.19162542
152	0xbe220135	-0.15820773
153	0x3e874e48	0.2642691
154	0xbdd09bbc	-0.10185954
155	0x3d9b9aea	0.07597907
156	0xbc243e0b	-0.010024558
157	0x3af61148	0.0018773461
158	0xbe06f7e3	-0.13180499
159	0x3d9a265b	0.07526847
160	0xbe189998	-0.14902341
161	0x3eb209eb	0.34773192
162	0xbd5c1c6c	-0.053738043
163	0x3de48bbb	0.11159464
164	0xbe873b56	-0.26412457
165	0x3e2ed985	0.17075165
166	0x3e39f012	0.18157986
167	0x3e2c5a6d	0.1683137
168	0xbdfdc2ad	-0.12390647
169	0xbda91e90	-0.082577825
170	0xbe0ba845	-0.13638408
171	0x3d1e9764	0.038718596
172	0xbdecbbfb	-0.11559292
173	0xbe196760	-0.1498084
174	0xbe49d535	-0.19710238
175	0xbdd01220	-0.10159707
176	0x3cd372f2	0.025811646
177	0xbd417dc4	-0.04723908
178	0x3e80ba90	0.25142336
179	0xbe5492e3	-0.20759158
180	0x3ea1a118	0.31568217
181	0xbd42e448	-0.047580987
182	0xbe770989	-0.24124731
183	0x3d3bb166	0.045823477
184	0x3e6b81c3	0.22998719
185	0x3e4b5777	0.19857584
186	0x3df0cc14	0.11757675
187	0x3d15d2dd	0.036578048
188	0xbdc63058	-0.096771896
189	0xbe816af9	-0.25276926
190	0xbd47f2bf	-0.048815485
191	0xbc65847c	-0.0140086375
192	0x3d90ac28	0.07064086
193	0x3c41b87f	0.011823772
194	0xbd35a246	-0.04434421
195	0x3d252ab0	0.040323913
196	0x3e044307	0.12916194
197	0x3e1ce3ac	0.15321225
198	0x3e3c0f25	0.18365152
199	0xbc1753fa	-0.00923633
200	0x3d7a94ac	0.06117694
201	0xbd8a37ce	-0.06748925
202	0xbd9b8ad4	-0.07594839
203	0xbd643a99	-0.055719946
204	0x3e9bfa0b	0.30464205
205	0xbddd79a6	-0.10814218
206	0xbbd6cd02	-0.0065552006
207	0xbe82f6fc	-0.2557906
208	0xbdd3b547	-0.1033731
209	0xbe92bc44	-0.2865926
210	0xbcf593a2	-0.029977623
211	0x3e8aaa98	0.27083278
212	0x3e2b3c88	0.1672231
213	0x3e2bfd8a	0.16795936
214	0xbe519a46	-0.20469007
215	0xbe876bc8	-0.26449418
216	0x3d0d287c	0.034462437
217	0x3d9354c8	0.07193905
218	0xbd17c226	-0.03705039
219	0x3e7660e2	0.24060395
220	0xbdaa6843	-0.083206676
221	0xbde66809	-0.11250312
222	0xbde1e3f1	-0.110298045
223	0x3e88dcff	0.26731107
224	0xbe211bef	-0.15733312
225	0xbe71c0f8	-0.23608768
226	0xbe8f33fc	-0.27969348
227	0xbded628b	-0.11591061
228	0xbdbb7838	-0.09153789
229	0x3da99657	0.08280628
230	0xbe70a12a	-0.23498979
231	0xbe7cc02b	-0.24682681
232	0x3e544c4e	0.20732233
233	0x3d0de92f	0.03464621
234	0xbe6c8b40	-0.23099995
235	0xbc82737a	-0.015924204
236	0xbe67d78e	-0.22640821
237	0x3dbf87cf	0.09352075
238	0x3d8b905c	0.06814644
239	0xbe136350	-0.14393353
240	0x3bd7165e	0.0065639457
241	0xbe482185	-0.19544037
242	0xbdce8aba	-0.10085054
243	0x3c051e1c	0.008124854
244	0x3d9e8692	0.07740511
245	0x3e20816e	0.15674374
246	0x3d016c66	0.031597517
247	0x3e8d3100	0.27576447
248	0x3dfe7359	0.124243446
249	0xbe819091	-0.25305608
250	0x3dbbbf60	0.09167361
251	0x3d030906	0.031991027
252	0xbe140ab7	-0.14457212
253	0x3e61f640	0.22066593
254	0x3e2c3536	0.16817173
255	0x3dd09d7c	0.10186288

encoder.conv2.bias f4 [32]
0	0x3e292296	0.165171
1	0xbd770248	-0.06030491
2	0xbdb0db8a	-0.08635624
3	0xbe01c689	-0.12673391
4	0xbd9a44cd	-0.07532654
5	0x3d415f17	0.047209825
6	0xbd4f27dc	-0.050575122
7	0x3dc2c7bf	0.09510755
8	0xbd80c3dd	-0.06287358
9	0xbce274cd	-0.027643586
10	0x3e29f122	0.16595891
11	0xbe02fbba	-0.12791339
12	0x3da9f7fa	0.08299251
13	0xbdf541b9	-0.11975426
14	0xbe46133c	-0.19343275
15	0xbcf09fb0	-0.02937302
16	0x3dca6285	0.09882072
17	0xbe73bc07	-0.23802195
18	0xbd0c29f2	-0.03421969
19	0xbd8641bb	-0.06555506
20	0xbdf86bb3	-0.12129917
21	0x3e09f17a	0.13471022
22	0x3e04bddc	0.1296305
23	0xbe1bd384	-0.15217406
24	0x3d187240	0.037218332
25	0x3c8e88e9	0.017399268
26	0x3d7b0149	0.061280522
27	0xbe4384fd	-0.190937
28	0xbe1168fa	-0.14200202
29	0x3df3ffc9	0.119140215
30	0xbe226ffe	-0.15863034
31	0x3ca4dc4f	0.020124583

layers.0.weight f4 [4, 32, 32]
0	0xbcddef04	-0.02709151
1	0xbd8bbf15	-0.068235554
2	0x3e04f50d	0.12984104
3	0x3d72cc59	0.059276912
4	0x3dc61d90	0.09673607
5	0x3eb049ae	0.34431213
6	0xbd778425	-0.060428757
7	0x3cd6f038	0.026237592
8	0x3e9e8a29	0.30964783
9	0xbc6fb846	-0.014631337
10	0x3e5068c9	0.20352472
11	0xbdc1a2b9	-0.09454865
12	0xbde50d70	-0.111842036
13	0x3d63a8eb	0.055581015
14	0xbd0b1e01	-0.03396416
15	0xbdf3a7b1	-0.11897219
16	0xbcebf728	-0.028804377
17	0x3de70699	0.11280555
18	0x3c94e650	0.018176228
19	0x3e16adde	0.14714763
20	0x3e45a96c	0.1930291
21	0xbeba5bea	-0.3639825
22	0x3dc2c5a9	0.09510357
23	0x3db13746	0.08653121
24	0xbe4450eb	-0.19171493
25	0xbe6a10be	-0.22857949
26	0x3e34c8bc	0.17654699
27	0xbdb47eb5	-0.0881323
28	0x3d7db0ca	0.061936177
29	0x3e47d75a	0.19515744
30	0x3f398b03	0.7247774
31	0x3d91ae05	0.0711327
32	0x3e3d127e	0.18464085
33	0xbe44745c	-0.19185013
34	0xbe23b59b	-0.15987246
35	0xbdccc94c	-0.09999332
36	0x3e2b2464	0.167131
37	0xbe87b017	-0.26501533
38	0x3e64155e	0.22273776
39	0x3d552828	0.05204025
40	0xbcbb58f5	-0.022869566
41	0x3e365bf3	0.17808513
42	0xbdf8d072	-0.12149133
43	0x3ddeb416	0.108741924
44	0xbe10e95a	-0.14151517
45	0xbd906953	-0.07051339
46	0xbe648511	-0.22316386
47	0xbd858725	-0.065199174
48	0xbd83c5d5	-0.06434218
49	0xbe6c419b	-0.23071902
50	0x3e01dd54	0.12682086
51	0x3e21929d	0.15778585
52	0x3e0a5bf8	0.13511646
53	0x3e434bbd	0.1907186
54	0xbc7d3eaf	-0.015456839
55	0x3e1fbb9d	0.15598913
56	0xbe0831a0	-0.1330018
57	0xbd46908b	-0.04847769
58	0xbc5f1f1d	-0.013618258
59	0xbc399bad	-0.01132862
60	0x3e48c1cd	0.19605179
61	0x3e3c82af	0.18409227
62	0xbe2e3df5	-0.17015822
63	0xbb9412e4	-0.0045188535
64	0x3e271dc4	0.16319948
65	0xbdefdee2	-0.117124334
66	0x3da39748	0.07987839
67	0xbd357898	-0.04430446
68	0x3dbe0df6	0.092800066
69	0xbe1003a9	-0.14063896
70	0x3c9263b0	0.0178698
71	0xbd324d2d	-0.04353063
72	0xbe8eb5b4	-0.27873003
73	0x3d120db8	0.035657614
74	0xbea43095	-0.32068315
75	0xbd805268	-0.06265718
76	0xbdc747dd	-0.09730504
77	0x3db1f3a1	0.08689047
78	0xbd15819a	-0.03650055
79	0x3d68577f	0.056724068
80	0x3e352581	0.17690088
81	0x3d84881f	0.064712755
82	0xbe60e2f0	-0.2196157
83	0xbe203231	-0.15644147
84	0xbe6a4c51	-0.22880675
85	0xbc3d74ec	-0.011563521
86	0x3cb071a0	0.021538556
87	0xbe20d3d8	-0.15705812
88	0x3e6795ba	0.2261571
89	0x3e040619	0.12892951
90	0xbe25e9a3	-0.16202407
91	0x3d4e61cd	0.05038624
92	0xbd9d7541	-0.0768838
93	0xbea8f8ff	-0.3300247
94	0xbedbce87	-0.42931005
95	0xbbfa9050	-0.007646598
96	0x3e1716b9	0.14754762
97	0x3df46064	0.119324476
98	0xbdac3c7f	-0.08409976
99	0x3d852018	0.06500262
100	0xbe530d25	-0.20610483
101	0xbe9019b5	-0.28144613
102	0x3e437c5c	0.19090408
103	0xbdadcfe9	-0.08486921
104	0xbe01f006	-0.12689218
105	0x3e9b5cd3	0.30344257
106	0xbe9bc93c	-0.30426967
107	0x3c7cf6c3	0.015439692
108	0xbe55334a	-0.20820346
109	0xbbcf7478	-0.006331023
110	0xbe1c320e	-0.1525347
111	0xbd3023ae	-0.043002777
112	0xbcabd303	-0.020974642
113	0x3e39928c	0.1812231
114	0xbdaff789	-0.085921355
115	0x3e3a7c84	0.18211561
116	0xbd5eb0ab	-0.054367702
117	0xbe045113	-0.12921552
118	0x3c6d15d6	0.014470538
119	0x3d94ee12	0.07271971
120	0xbba4d1ad	-0.005029878
121	0xbd67cdba	-0.05659268
122	0x3bbf0a7c	0.0058301073
123	0x3dba9fa3	0.091124795
124	0x3da04276	0.078251764
125	0x3d862ac9	0.06551129
126	0xbeede095	-0.46460405
127	0x3da749bf	0.08168363
128	0x3cfe2537	0.031023605
129	0x3de4ef3c	0.11178443
130	0x3da3cc7f	0.07997989
131	0xbd1f394d	-0.038873006
132	0x3deae907	0.11470228
133	0xbe85238f	-0.26003692
134	0xbd6e1132	-0.058121867
135	0xbe1e636a	-0.15467611
136	0xbe80c82b	-0.25152716
137	0xbc1b8c8a	-0.009493956
138	0xbdb508b8	-0.088395536
139	0xbd3d8791	-0.046271864
140	0x3cdcfa3c	0.02697479
141	0xbbd0b13b	-0.006368784
142	0x3d13ae62	0.036054976
143	0x3daf4712	0.085584775
144	0x3db78efc	0.08962819
145	0x3e0c298f	0.13687728
146	0xbe64c057	-0.22338997
147	0xbb6e5b9f	-0.0036370528
148	0xbdb3a724	-0.08772114
149	0x3e5e0ea7	0.21685277
150	0x3cec4713	0.028842485
151	0xbe1d339d	-0.1535172
152	0x3db402db	0.08789607
153	0xbb972957	-0.0046130824
154	0xbd843683	-0.0645571
155	0xbdb90a90	-0.09035218
156	0xbe1d2a94	-0.15348274
157	0xbe45fe71	-0.19335343
158	0xbe647fd7	-0.22314392
159	0xbcd1e4f5	-0.02562187
160	0xbdcf064c	-0.10108623
161	0x3db48879	0.088150926
162	0x3dcddb90	0.10051644
163	0x3d76ca9a	0.06025181
164	0xbd4ece1c	-0.05048953
165	0x3e21ba37	0.15793692
166	0xbc6984e2	-0.014252873
167	0x3e094810	0.13406396
168	0xbcfd1c30	-0.03089723
169	0xbd3e3b18	-0.046443075
170	0x3ddb0e98	0.10696143
171	0x3d1ae970	0.03782028
172	0x3e142a84	0.14469343
173	0x3d210ed7	0.039320793
174	0x3d6a0edd	0.05714308
175	0x3e3a7f9b	0.1821274
176	0xbbad2e45	-0.005285057
177	0xbdadff51	-0.08495963
178	0x3d03b295	0.03215273
179	0x3c6fb2fe	0.014630077
180	0x3dcd366b	0.10020145
181	0x3d3e7f02	0.046507843
182	0xbc25763f	-0.010098993
183	0x3e81dc38	0.25363326
184	0x399472fc	0.0002831443
185	0xbda6c42b	-0.08142885
186	0x3e0d9c7a	0.13829222
187	0xbc1605cd	-0.009156656
188	0x3cace53d	0.021105403
189	0x3e873e0f	0.26414534
190	0x3e4cfafd	0.2001762
191	0xbde8eb68	-0.11373025
192	0x3d01ee63	0.031721484
193	0x3eac0d0f	0.33603713
194	0xbe0349d2	-0.12821129
195	0xbdb4c048	-0.08825737
196	0xbe42cffa	-0.1902465
197	0xbe9295c9	-0.28629902
198	0xbd98b96e	-0.07457243
199	0xbca1135c	-0.019662552
200	0xbeaf7bc3	-0.3427411
201	0x3de90735	0.11378328
202	0xbe8ddf23	-0.27709302
203	0xbda7b619	-0.08189029
204	0xbc23a419	-0.009987854
205	0xbdfbe1d6	-0.12298934
206	0xbd87f83b	-0.06639143
207	0x3c463cae	0.012099428
208	0xbd1dfc89	-0.038570914
209	0x3c238084	0.009979371
210	0x3d618683	0.05505992
211	0x3da5a932	0.08088912
212	0xbd402df9	-0.046918843
213	0x3d89cc04	0.06728366
214	0x3d54565c	0.05184017
215	0x3e0ab00a	0.13543716
216	0xbe553b09	-0.20823301
217	0xbd9cc1a8	-0.076541245
218	0x3e13021c	0.14356273
219	0x3d9d7fe4	0.07690409
220	0x3e1440af	0.144778
221	0xbccde96f	-0.025135724
222	0xbe7de8a8	-0.24795783
223	0x3dcca5e4	0.099925786
224	0xbe86bd52	-0.26316315
225	0xbca5f61c	-0.020258956
226	0xbd6ae62d	-0.05734842
227	0xbe379199	-0.17926635
228	0xbeefedda	-0.46861154
229	0x3e700486	0.23439226
230	0xbe750b66	-0.2393013
231	0xbd7e81f0	-0.062135637
232	0xbbcd3b3c	-0.006263165
233	0x3dc9da64	0.09856108
234	0x3bf4fac4	0.0074761827
235	0x3d84ed99	0.06490631
236	0xbd9259fc	-0.071460694
237	0xbe115f38	-0.1419648
238	0x3c4fc992	0.012682335
239	0x3d5d37d8	0.054008335
240	0x3e843665	0.2582275
241	0x3d66d4b1	0.056355182
242	0xbdbe8dab	-0.09304365
243	0xbdd3eb93	-0.103476666
244	0xbbf971be	-0.007612436
245	0xbea76c58	-0.32699847
246	0x3d56ca75	0.05243917
247	0x3cda8625	0.026675293
248	0x3e19b2d9	0.15009631
249	0xbe409a04	-0.18808752
250	0x3d7ac2e6	0.061221026
251	0xbcde92e1	-0.027169647
252	0x3daed206	0.085361525
253	0x3e759f62	0.23986581
254	0x3f0fca17	0.5616774
255	0x3c7b7260	0.015347093

layers.0.w_comp f4 [28, 4]
0	0xbd379ed7	-0.044829216
1	0x3ef15591	0.47135594
2	0xbee87073	-0.45398292
3	0x3d9a19ec	0.075244755
4	0xbe85cf1f	-0.26134583
5	0xbf26f434	-0.65216374
6	0xbead91ed	-0.33900395
7	0xbef3f74b	-0.47649607
8	0xbecdcd25	-0.40195575
9	0xbefb24e0	-0.4905157
10	0x3ece1668	0.4025147
11	0x3e930e6e	0.28721946
12	0xbf08c7cc	-0.53429866
13	0x3eba1191	0.36341527
14	0xbe213945	-0.15744503
15	0xbf471ee9	-0.7778154
16	0xbc7525a2	-0.014962586
17	0xbf0f8af3	-0.56071395
18	0x3cf61056	0.030037086
19	0x3eee5421	0.4654856
20	0x3d23e8b1	0.040016834
21	0x3f1c9cb2	0.611766
22	0x3edffeb3	0.43749008
23	0xbf029bc4	-0.5101893
24	0xbf4bdfe5	-0.7963851
25	0x3f0bfa4f	0.54678816
26	0xbed56d14	-0.41684783
27	0x3e39a544	0.1812945
28	0xbf4a81a4	-0.79104066
29	0xbea02b3c	-0.31282985
30	0xbec1eb26	-0.37874717
31	0x3e9a5a0f	0.30146834
32	0xbf661d20	-0.8988819
33	0x3fa1b9c0	1.2634811
34	0x3cec8d25	0.028875897
35	0x3f201fc2	0.6254846
36	0x3f5e3808	0.86804247
37	0x3e85983d	0.2609271
38	0x3d40138e	0.04689365
39	0x3f7a1d12	0.9770061
40	0xbeca38fb	-0.39496598
41	0x3f6f8957	0.9356894
42	0xbede086f	-0.4336581
43	0xbf08a261	-0.5337277
44	0xbb86439a	-0.004097414
45	0x3f21406f	0.6298894
46	0xbf7ebb6f	-0.9950475
47	0x3e24c636	0.16091236
48	0x3ed92a09	0.42414883
49	0xbf344eaa	-0.7043253
50	0xbd56c3e5	-0.052432913
51	0x3edfa244	0.43678486
52	0xbdba9e38	-0.09112209
53	0x3f0f0279	0.5586315
54	0x3d06783e	0.032829516
55	0xbeb3df6b	-0.35131392
56	0x3d7b5676	0.061361752
57	0x3ec6413b	0.38721642
58	0x3f5be602	0.8589784
59	0x3ea53be3	0.32272252
60	0xbf516f03	-0.81810015
61	0x3ed68ad0	0.4190278
62	0xbeabe540	-0.3357334
63	0x3effcb8a	0.49959975
64	0xbefd3101	-0.4945145
65	0xbe580265	-0.21094663
66	0x3f1c60e1	0.61085325
67	0xbbe01b0e	-0.0068391627
68	0x3dbe9e78	0.09307569
69	0x3f1c4f87	0.6105885
70	0x3bf2f9bc	0.0074150246
71	0x3f8599c7	1.0437554
72	0x3e85d7a4	0.26141083
73	0x3e1c0f90	0.15240312
74	0xbf82a19d	-1.020557
75	0x3e810094	0.25195754
76	0x3e5b1712	0.2139552
77	0x3e052fa9	0.13006462
78	0x3ede0fbe	0.43371385
79	0xbbec3cf8	-0.0072094165
80	0x3e5bb979	0.21457471
81	0x3ecd64a5	0.40115848
82	0x3ba770e4	0.005109893
83	0xbea41b0a	-0.3205188
84	0x3ec2dedc	0.38060653
85	0xbda34db0	-0.07973802
86	0x3e3e60d6	0.18591627
87	0x3f020553	0.50789374
88	0x3e03bdb8	0.1286534
89	0x3e40c615	0.18825562
90	0x3e8b2443	0.27176103
91	0xbefcf877	-0.49408314
92	0x3f18d416	0.5969862
93	0x3f87218c	1.0557113
94	0xbf0493f6	-0.5178827
95	0x3d306ded	0.043073583
96	0xbe8cf7e4	-0.27532876
97	0x3ef9e95c	0.48810852
98	0x3eb02e83	0.34410486
99	0xbd83bee2	-0.064328924
100	0xbedf4af0	-0.4361186
101	0x3f16b7db	0.5887429
102	0xbf196da1	-0.59932905
103	0x3ec898a2	0.3917895
104	0xbf2a0e2d	-0.6642788
105	0xbf222dc6	-0.63351095
106	0xbed6700f	-0.4188237
107	0xbe812f9e	-0.25231642
108	0x3f9ed911	1.2409993
109	0x3bfa8d35	0.0076462277
110	0x3e4d33c3	0.20039277
111	0xbeced103	-0.40393838

layers.0.self_loop_weight f4 [32, 32]
0	0x3e7875ac	0.24263638
1	0x3ebef44c	0.3729576
2	0xbe4c17da	-0.19930974
3	0x3c846836	0.016162973
4	0x3d9dbcac	0.07702002
5	0xbe4f86e5	-0.20266302
6	0x3ecbe45f	0.3982267
7	0xbce84b41	-0.028356196
8	0x3c885f0f	0.01664689
9	0x3e56ad35	0.2096451
10	0xbdec4fa7	-0.1153863
11	0xbe2d030a	-0.1689569
12	0x3de15d4f	0.11004125
13	0x3e5e7017	0.21722446
14	0xbd181388	-0.037128
15	0xbe6916a3	-0.22762541
16	0x3dade50b	0.08490952
17	0xbdc2ead2	-0.09517445
18	0xbdfcb72b	-0.12339624
19	0x3d665e24	0.056242123
20	0x3ef47683	0.47746667
21	0x3cd7fa40	0.026364446
22	0xbe3e61bd	-0.18591972
23	0xbe1c7599	-0.15279235
24	0xbe425b93	-0.18980245
25	0x3ea6664e	0.32499927
26	0x3a2bb689	0.0006550332
27	0xbe78e017	-0.24304233
28	0x3e8edc46	0.2790243
29	0xbe1094d5	-0.14119275
30	0xbc658d20	-0.014010698
31	0x3b57f679	0.0032953306
32	0x3df02a23	0.11726787
33	0xbd883bee	-0.06652056
34	0xbc2f6903	-0.010706189
35	0xbe48c8b7	-0.19607817
36	0xbe4ca7a0	-0.19985819
37	0x3e8bcdba	0.27305394
38	0xbe820ef3	-0.2540203
39	0x3e264e8e	0.16240904
40	0x3e940c34	0.2891556
41	0xbe3634d9	-0.17793597
42	0xbeab267d	-0.33427802
43	0xbe6e34de	-0.23262355
44	0xbe374f6a	-0.17901388
45	0xbe0e0bdf	-0.13871716
46	0x3edf9c1b	0.43673787
47	0x3ee39260	0.44447613
48	0xbbfcef34	-0.007718945
49	0x3e0e9449	0.13923754
50	0x3ebaa3db	0.36453137
51	0xbc943858	-0.018093273
52	0x3ec704d5	0.38870874
53	0xbe826ddf	-0.2547445
54	0xbdb5bef2	-0.088743106
55	0x3d19a33e	0.037509196
56	0x3eb02722	0.34404856
57	0x3e8edb98	0.27901912
58	0x3eeb8cfd	0.46006003
59	0x3ea59e43	0.32347307
60	0x3e7d9f18	0.2476772
61	0x3e89a1ba	0.268812
62	0xbd467c54	-0.048458412
63	0x3eb86320	0.36013126
64	0x3ebb4b2c	0.3658079
65	0x3ebd4169	0.36963966
66	0x3e4defcd	0.20111008
67	0xbd64d0ba	-0.05586312
68	0xbded1858	-0.11576909
69	0xbe364781	-0.17800714
70	0xbcf3390d	-0.02969029
71	0xbe870c4c	-0.2637657
72	0xbe82cceb	-0.25546965
73	0xbe0d0f12	-0.1377528
74	0xbe93ce15	-0.28868166
75	0x3e99c7b7	0.30035183
76	0x3e8a3d76	0.27000016
77	0xbeb3d8e1	-0.35126403
78	0x3d6e8e67	0.058241274
79	0xbe41b7dc	-0.18917793
80	0x3e163a0a	0.14670578
81	0x3e4287f9	0.18997182
82	0x3eb3bf66	0.35106963
83	0xbead1332	-0.33803707
84	0xbed08d73	-0.40732917
85	0xbe8b7ce3	-0.27243719
86	0xbc4352f0	-0.011921629
87	0x3c5f3c2b	0.013625185
88	0x3e493fa4	0.19653183
89	0xbe2d21c4	-0.16907412
90	0xbe15f5e9	-0.14644589
91	0x3e2a9d62	0.166616
92	0xbb50beff	-0.0031852124
93	0xbd33469d	-0.043768514
94	0xbe976e83	-0.295765
95	0x3e9544ef	0.29154155
96	0x3e2b2705	0.16714104
97	0x3e689284	0.22712141
98	0xbe36ca99	-0.17850722
99	0xbe8f3572	-0.27970463
100	0x3cbc4bdc	0.022985391
101	0xbd836e04	-0.06417468
102	0x3ee1c174	0.44092906
103	0x3e1e4127	0.15454541
104	0xbe9a294f	-0.3010964
105	0x3e11ec3b	0.14250271
106	0x3eb6734d	0.35634843
107	0xbe278d02	-0.16362384
108	0x3dad4222	0.084598795
109	0xbeb643b5	-0.3559853
110	0x3e43a226	0.19104823
111	0xbeac105b	-0.33606228
112	0x3e303ecb	0.17211454
113	0xbe88b99c	-0.2670411
114	0xbe68d2ad	-0.22736616
115	0x3e7761ab	0.24158351
116	0xbeae8da6	-0.34092444
117	0xbe09ea19	-0.13468207
118	0x3e637c2d	0.22215338
119	0x3ecc0a47	0.3985159
120	0xbce016ae	-0.027354565
121	0xbe8e66e7	-0.27812883
122	0x3edc8c9f	0.43076035
123	0xbe29620c	-0.16541308
124	0xbddc6266	-0.107609555
125	0x3e90a6e8	0.2825234
126	0x3e613345	0.21992214
127	0x3cee1a14	0.02906517
128	0x3e455929	0.19272293
129	0xbcafe303	-0.021470552
130	0x3e9c062c	0.3047346
131	0x3cdc8c84	0.026922472
132	0xbebe8801	-0.37213138
133	0x3dfd6f87	0.12374788
134	0xbdcc31c9	-0.09970433
135	0xbe985831	-0.29754785
136	0xbeb861e3	-0.36012182
137	0x3c7e8eb0	0.015536949
138	0x3e243dc6	0.1603919
139	0xbe2543e9	-0.16139187
140	0x3edb0c1a	0.4278267
141	0x3d3678d8	0.04454884
142	0x3dceba71	0.100941546
143	0x3e9dc605	0.3081514
144	0xbe6935b0	-0.22774386
145	0xbe987144	-0.29773915
146	0xbe398695	-0.18117745
147	0xbc2821cf	-0.010261967
148	0xbedc0113	-0.4296957
149	0x3e305d67	0.1722313
150	0x3e01a7d4	0.12661678
151	0x3eb9216f	0.3615832
152	0x3e8e9da4	0.27854645
153	0x3d35196a	0.04421369
154	0x3e506f0d	0.20354863
155	0x3e0a4cb7	0.13505827
156	0x3c9d82d7	0.019227428
157	0x3e3713e7	0.17878686
158	0xbe92c903	-0.28668985
159	0xbe70bdee	-0.23509952
160	0x3cdfc596	0.027315896
161	0x3dbeccbf	0.09316396
162	0xbe758e00	-0.2397995
163	0xbe6a8737	-0.22903143
164	0xbea2d036	-0.31799477
165	0x3cc22da7	0.02370341
166	0x3e87835d	0.2646741
167	0xbec16d93	-0.3777891
168	0x3dd209e3	0.10255792
169	0x3e72e6af	0.23720811
170	0xbd6047c1	-0.05475593
171	0x3e0b3659	0.1359495
172	0x3e668d45	0.22514828
173	0xbd983cb9	-0.07433457
174	0x3e9e6991	0.30939916
175	0xbeea064a	-0.45707923
176	0x3dac1a1b	0.08403417
177	0x3eb2da3f	0.34932134
178	0xbdca27e1	-0.098708875
179	0xbea6be83	-0.32567224
180	0x3e6d4ee9	0.23174633
181	0x3cb134dd	0.021631652
182	0xbd8a36f1	-0.067487605
183	0x3ebfe397	0.37478325
184	0x3ecd0052	0.40039307
185	0x3d7cef86	0.061751865
186	0xbe760f5a	-0.24029294
187	0xbeaca8fe	-0.3372268
188	0xbe12ed66	-0.14348373
189	0x3e88822b	0.2666181
190	0x3e973083	0.295292
191	0xbe3efb7f	-0.18650626
192	0x3dc3eeb4	0.095670134
193	0xbe0e9b2f	-0.13926385
194	0x3dc46cd0	0.09591067
195	0xbe716e41	-0.23577215
196	0x3e708047	0.23486434
197	0xbe1de984	-0.1542111
198	0xbdec268b	-0.11530789
199	0xbe514662	-0.20437005
200	0x3edeccc1	0.4351559
201	0xbdd71d4e	-0.10503636
202	0x3ea8ada1	0.32944968
203	0x3d55383e	0.05205559
204	0xbeb06b47	-0.34456846
205	0x3df74774	0.120741755
206	0xbd7343d2	-0.05939085
207	0x3e642268	0.2227875
208	0xbea2708a	-0.31726485
209	0x3ec6cba2	0.38827235
210	0xbdd0ccfd	-0.101953484
211	0x3d319e40	0.04336381
212	0xbe5a3610	-0.21309686
213	0x3ce36401	0.027757647
214	0xbeb6a19e	-0.3567018
215	0xbe9030ea	-0.28162318
216	0xbe1a9a2a	-0.15097871
217	0x3dac0f61	0.08401371
218	0x3eba9c8c	0.3644756
219	0x38b7ccc7	8.764263e-05
220	0x3eb04089	0.34424236
221	0x3ead3ad0	0.33833933
222	0x3e8d5e8b	0.27611193
223	0x3e2eb1fb	0.17060082
224	0xbd103d50	-0.035214722
225	0xbd74f4a7	-0.05980363
226	0x3ed582de	0.41701406
227	0x3e690a03	0.22757725
228	0x3ea8c974	0.32966197
229	0xbd02fa6e	-0.03197711
230	0xbdd3d2dc	-0.103429526
231	0xbe47cafa	-0.19511023
232	0xbe961ebe	-0.2932033
233	0x3dae29b6	0.085040495
234	0x3d37f3af	0.04491013
235	0x3cc72195	0.024308005
236	0xbec639f5	-0.38716093
237	0x3e7b333e	0.24531266
238	0xbd243beb	-0.040096205
239	0x3e29f678	0.16597927
240	0x3d20007b	0.03906296
241	0xbe979c60	-0.29611492
242	0x3e5c82ad	0.21534224
243	0xbec94b75	-0.39315382
244	0x3e7ce0d9	0.24695148
245	0xbe98c2b7	-0.29836056
246	0xbe4899e6	-0.19589958
247	0xbd44901a	-0.04798899
248	0xbec412d1	-0.38295606
249	0xbe61cd57	-0.22050987
250	0x3cdce6ad	0.026965464
251	0xbce470aa	-0.027885754
252	0xbe2fce81	-0.17168619
253	0xbecf5e54	-0.40501654
254	0xbe48968c	-0.19588679
255	0xbeaf5055	-0.34240976

layers.0.bias f4 [32]
0	0x3d762c78	0.060101002
1	0xbd68a6cc	-0.056799695
2	0xbdd845d2	-0.10560192
3	0x3da3a118	0.079897106
4	0xbd3011c2	-0.042985685
5	0xbd54cc51	-0.051952664
6	0x3ce01249	0.027352469
7	0xbcf8119c	-0.030281834
8	0x3d0fa5e3	0.03507031
9	0xbcdebc75	-0.027189473
10	0xbd8c111b	-0.068392
11	0xbd97adcc	-0.07406196
12	0xbd53f670	-0.051748693
13	0x3e04a014	0.1295169
14	0x3d2b928b	0.0418878
15	0xbdab2034	-0.08355752
16	0xbdf1b8b6	-0.11802809
17	0x3cb2400b	0.021759054
18	0xbdfb087f	-0.1225748
19	0xbdecdb71	-0.115652926
20	0x3d9db8cd	0.077012636
21	0xbc1ead2f	-0.009684845
22	0x3d8cc4da	0.06873484
23	0xbe1019d6	-0.14072356
24	0xbca202a8	-0.019776657
25	0x3dd94a1d	0.10609839
26	0xbd18d54e	-0.0373128
27	0xbd21887f	-0.039436813
28	0xbd630af5	-0.05543037
29	0xbdf5068b	-0.119641386
30	0xbdb0af87	-0.08627229
31	0xbe02dda7	-0.12779866

layers.1.weight f4 [4, 32, 32]
0	0xbf06f9aa	-0.5272471
1	0x3c9fc10c	0.019501232
2	0x3bc3d93c	0.005976824
3	0xbbe6dea8	-0.0070455857
4	0x3cf772da	0.030206133
5	0xbe0f3b59	-0.13987483
6	0x3dff8cf3	0.12478056
7	0x3e145c24	0.14488274
8	0x3dd1faee	0.10252939
9	0x3da0434e	0.07825337
10	0xbcfac735	-0.030612567
11	0xbdfa410a	-0.122194365
12	0xbec4a1a1	-0.38404563
13	0xbda546f3	-0.08070173
14	0xbde8790c	-0.11351213
15	0xbe10a23a	-0.14124385
16	0x3ee3d645	0.44499412
17	0x3e8970bc	0.26843822
18	0xbda70ef7	-0.08157151
19	0x3dbe83c4	0.09302476
20	0xbded22e0	-0.115789175
21	0xbc18c05c	-0.009323206
22	0xbd8a8278	-0.06763166
23	0x3d59e970	0.05320114
24	0xbea90a8d	-0.33015862
25	0x3c9adbc7	0.018903626
26	0xbd83a780	-0.064284325
27	0xbacef8c4	-0.0015790691
28	0x3d05c415	0.0326577
29	0xbd7e4cb5	-0.062084872
30	0xbdeba8ab	-0.1150678
31	0x3e830c91	0.25595525
32	0xbf3d97fd	-0.7406004
33	0xbed8a620	-0.42314243
34	0x3d829922	0.06376864
35	0xbedb702c	-0.42859018
36	0xbd7ebc11	-0.062191073
37	0xbe98300b	-0.29724154
38	0x3e2821c5	0.16419132
39	0x3f07abe1	0.5299664
40	0xbe7848ee	-0.2424657
41	0xbd912f4e	-0.07089101
42	0xbd4278bb	-0.04747842
43	0xbf5f24ef	-0.8716573
44	0xbe0cc841	-0.13748266
45	0x3dd76b3c	0.105185
46	0x3e5db73c	0.2165193
47	0xbc9f2edb	-0.019431522
48	0xbe82c26b	-0.25538954
49	0xbe6e96fa	-0.2329978
50	0x3e049e23	0.1295095
51	0x3f212774	0.62950826
52	0xbe6cb756	-0.23116812
53	0xbdea436e	-0.114386424
54	0x3e194785	0.14968689
55	0xbf153061	-0.58276945
56	0x3d8b0f78	0.0679006
57	0x3e6b18eb	0.22958724
58	0xbf7b45f9	-0.98153645
59	0xbf167436	-0.58771074
60	0x3dbcf576	0.092265055
61	0x3f3b615c	0.73195434
62	0x3da1028c	0.07861814
63	0x3e1ce1a9	0.15320458
64	0x3d5ba060	0.053619742
65	0xbdb148cb	-0.08656462
66	0x3e1d1f00	0.15343857
67	0x3b9ff7e8	0.0048818476
68	0x3d39a2d2	0.045321293
69	0xbe13404d	-0.14379998
70	0x3d78f14d	0.060776997
71	0xbd92b20b	-0.07162865
72	0xbe01c98b	-0.12674539
73	0xbd8cde12	-0.06878294
74	0x3d7390b9	0.05946419
75	0xbe079304	-0.13239676
76	0x3e19645a	0.14979687
77	0x3bc23e9d	0.0059278742
78	0xbe5cde1c	-0.21569103
79	0xbdeaa9e4	-0.11458185
80	0xbdd30005	-0.10302738
81	0x3e185d19	0.14879264
82	0x3cda5f13	0.026656663
83	0x3ea67e61	0.32518294
84	0x3cc8da73	0.024518227
85	0x3dffa7b3	0.12483158
86	0xbe04163a	-0.12899104
87	0xbe37caaf	-0.17948411
88	0x3d92aa74	0.071614176
89	0x3e39ae57	0.18132912
90	0x3dc0b6ce	0.09409867
91	0x3df093d6	0.117469475
92	0x3ad1a44c	0.0015994399
93	0xbdb16565	-0.086619176
94	0x3c836be2	0.016042653
95	0xbe149704	-0.14510733
96	0xbef42f17	-0.47692177
97	0xbdcd8990	-0.100360036
98	0xbde65a3f	-0.11247682
99	0xbd0799f4	-0.033105806
100	0x3e14baad	0.14524336
101	0xbc626d72	-0.013820039
102	0x3eea2f60	0.4573927
103	0xbcf51d5a	-0.029921222
104	0xbe8830ba	-0.26599675
105	0xbdb34468	-0.08753282
106	0x3dc816df	0.09769987
107	0x3dbf35c5	0.093364276
108	0xbd06791f	-0.032830354
109	0xbd26470b	-0.040595096
110	0xbd854657	-0.06507557
111	0xbdfbd1fc	-0.12295911
112	0x3e44bb2b	0.19212024
113	0x3e362577	0.17787729
114	0x3e1a26eb	0.15053909
115	0xbe7e7611	-0.24849726
116	0x3c960abe	0.01831567
117	0xbdc68316	-0.096929714
118	0xbde6c7ee	-0.11268602
119	0x3d71b1bf	0.059007403
120	0xbded88bd	-0.115983464
121	0x3d856dac	0.06515059
122	0xbcb80b24	-0.02246625
123	0x3a89f486	0.0010525144
124	0x3ccfa1f1	0.025345774
125	0xbdfe1e23	-0.12408092
126	0xbe80370c	-0.25041997
127	0x3e9d0743	0.30669603
128	0x3f6c34a9	0.92267853
129	0x3ed9a931	0.42511895
130	0x3ec293bf	0.38003346
131	0xbd52bcf4	-0.05144973
132	0x3d64c519	0.05585203
133	0xbd8551d2	-0.065097466
134	0xbdfe68f8	-0.12422365
135	0xbf0eab83	-0.55730456
136	0xbd9aba59	-0.07555074
137	0xbe0f5f41	-0.1400118
138	0x3dc764ee	0.09736048
139	0xbdce4882	-0.100724235
140	0x3d379e1f	0.04482853
141	0xbf30ce1f	-0.69064516
142	0xbdf5560d	-0.119793035
143	0x3d1e8e9b	0.038710218
144	0x3e290c58	0.16508615
145	0x3d471b62	0.0486101
146	0xbe43c929	-0.19119705
147	0xbd762848	-0.06009701
148	0xbc8262ca	-0.015916247
149	0xbeb1898f	-0.3467526
150	0x3eb8c962	0.36091143
151	0xbcaf6356	-0.021409672
152	0xbd769de8	-0.060209185
153	0x3d7340c7	0.05938795
154	0xbddcae76	-0.10775463
155	0x3e1228ee	0.14273426
156	0x3dc141f2	0.09436406
157	0x3e6a44cc	0.22877806
158	0xbe2a336a	-0.16621175
159	0x3c90ed67	0.017691327
160	0xbe22a7fc	-0.15884393
161	0x3f0d2565	0.55135185
162	0x3d47e68e	0.04880386
163	0x3d61228e	0.054964595
164	0xbcf6a3a4	-0.030107327
165	0xbc7b9389	-0.015354999
166	0x3c85407f	0.016266106
167	0x3eae98fb	0.3410109
168	0x3e22cecd	0.158992
169	0xbcd04a03	-0.025425917
170	0xbd1a4b72	-0.037669607
171	0xbe84da3f	-0.2594776
172	0x3d0232d9	0.031786773
173	0xbe33b7f8	-0.17550647
174	0xbca628e7	-0.020283176
175	0x3c9e4832	0.019321535
176	0x3c19a962	0.009378763
177	0xbe4bae70	-0.19890761
178	0xbd8a7175	-0.067599215
179	0x3f269307	0.65068096
180	0xbec65e67	-0.38743898
181	0xbb64578e	-0.0034842226
182	0xbe10e7bf	-0.14150904
183	0xbdc3153e	-0.09525536
184	0xbe5e1ccb	-0.21690671
185	0x3e07fab7	0.13279234
186	0xbd2fe63f	-0.04294419
187	0x3e065a1b	0.1312031
188	0x3d6e8aaa	0.05823771
189	0xbdc63a69	-0.096791096
190	0x3e56df4d	0.2098362
191	0xbeac7106	-0.3367998
192	0x3e889122	0.26673228
193	0xbda57e9d	-0.0808079
194	0x3d6546cb	0.055975717
195	0xbe138309	-0.14405455
196	0xbd9c325c	-0.07626793
197	0x3a23eb64	0.00062530325
198	0x3e90a184	0.28248227
199	0xbdf85d53	-0.12127175
200	0xbe1f3449	-0.15547289
201	0x3c2a2d14	0.010386724
202	0x3e2a1435	0.16609271
203	0x3df0c3b7	0.1175608
204	0x3de83785	0.113387145
205	0x3d89f47f	0.06736087
206	0xbe3ff7da	-0.18746892
207	0xbdea6d15	-0.11446587
208	0x3e089e00	0.13341522
209	0x3e6c220e	0.23059866
210	0x3df6e4a9	0.12055332
211	0xbf1f1ca8	-0.621531
212	0xbd802344	-0.062567264
213	0x3d3ba420	0.04581082
214	0x3f0464e4	0.51716447
215	0xbd0b455b	-0.03400169
216	0xbddffbd5	-0.10936705
217	0x3e49e90a	0.19717804
218	0xbe076fe8	-0.13226283
219	0xbe4197f3	-0.1890562
220	0x3dd37f0e	0.10326968
221	0x3d6b3abe	0.057429068
222	0xbe21b480	-0.15791512
223	0x3e58748c	0.21138209
224	0x3f3f4de4	0.74728227
225	0xbb633104	-0.0034666667
226	0x3f0af1b8	0.54275084
227	0xbeccab5a	-0.3997448
228	0x3ed8f816	0.42376775
229	0xbe929c41	-0.28634837
230	0x3f5caf9c	0.8620546
231	0x3eb4262b	0.3518537
232	0xbc87d868	-0.016582683
233	0xbd985662	-0.07438351
234	0xbe665f54	-0.22497302
235	0xbeb4f623	-0.35344037
236	0x3de47f77	0.111571245
237	0x3d49205e	0.049103133
238	0x3c3c0485	0.011475687
239	0xbdb8fb19	-0.09032268
240	0xbf514910	-0.8175211
241	0xbe07e8fd	-0.13272472
242	0xbca44f06	-0.020057213
243	0xbdc00fe2	-0.093780294
244	0x3df7e174	0.12103549
245	0x3d77573e	0.060385935
246	0x3f0d3a48	0.55167055
247	0x3d82e2fa	0.063909486
248	0x3d606e54	0.054792717
249	0x3df6ff30	0.12060392
250	0xbed2bd92	-0.41160256
251	0xbc817c85	-0.015806446
252	0x3dbe27ba	0.09284921
253	0x3df1f6ee	0.11814676
254	0xbe2d4db7	-0.16924177
255	0xbf3b9ce7	-0.7328629

layers.1.w_comp f4 [28, 4]
0	0x3edda4fa	0.4328993
1	0x3f00fc29	0.50384766
2	0xbf26e3d1	-0.6519137
3	0xbcd7923d	-0.026314849
4	0x3ef4466e	0.47709984
5	0x3b95e733	0.0045746802
6	0x3caf0817	0.021366162
7	0x3e2264ee	0.15858814
8	0xbc838bf6	-0.01605795
9	0x3dada4cf	0.084787
10	0xbf190b17	-0.59782547
11	0xbf52780a	-0.82214415
12	0x3f3c370f	0.7352151
13	0xbf265108	-0.64967394
14	0x3f2ad910	0.6673746
15	0x3e78637b	0.24256699
16	0xbe998b04	-0.29988873
17	0x3f5061f6	0.81399477
18	0xbd28d571	-0.04121918
19	0xbf186900	-0.5953522
20	0xbf209ccc	-0.62739253
21	0xbebd3886	-0.36957186
22	0xbe436a1d	-0.19083448
23	0x3f3ac283	0.7295305
24	0xbf357c14	-0.70892453
25	0x3ed67084	0.41882718
26	0x3f75a2ab	0.95951337
27	0xbeb198a1	-0.3468676
28	0xbdadcf68	-0.08486825
29	0x3f2c0cf2	0.6720725
30	0x3d93d3e9	0.07218153
31	0xbf30d81c	-0.69079757
32	0xbf0084de	-0.5020274
33	0x3e985802	0.29754645
34	0x3f36d8ba	0.7142445
35	0x3df82b95	0.121176876
36	0xbd20836e	-0.03918784
37	0x3e84712b	0.2586759
38	0xbb9a6324	-0.0047115255
39	0x3ec8cd6e	0.3921923
40	0xbdc83c89	-0.09777171
41	0x3f0a374c	0.53990626
42	0xbf841853	-1.0319923
43	0x3c1d00af	0.0095826825
44	0xbe910571	-0.28324464
45	0x3f5de786	0.866814
46	0x3c544a1c	0.012957122
47	0xbf17196b	-0.5902316
48	0xbdbb90d0	-0.0915848
49	0xbf94456a	-1.1583683
50	0xbe9ac1dc	-0.30226028
51	0xbda97c91	-0.08275712
52	0x3efb0461	0.49026778
53	0xbf0f6c14	-0.5602429
54	0x3e80a24d	0.25123826
55	0xbf1fc02b	-0.624026
56	0xbd0ad98a	-0.033898868
57	0x3e461398	0.19343412
58	0xbf5c47b7	-0.8604693
59	0x3f13e81e	0.5777606
60	0xbefa67ab	-0.48907217
61	0x3e925f8f	0.2858853
62	0xbe1fb9d7	-0.15598236
63	0x3ed819be	0.4220714
64	0x3e54d1cd	0.20783158
65	0x3e401ddf	0.18761395
66	0x3ee9ef69	0.45690468
67	0xbdaeccf5	-0.08535186
68	0x3f7b2afd	0.9811247
69	0xbe28140f	-0.16413902
70	0x3e0cfa9d	0.13767476
71	0x3e9d96ea	0.307792
72	0xbd086748	-0.03330162
73	0xbe2bdddc	-0.16783851
74	0xbf361b14	-0.7113507
75	0x3f76913a	0.9631535
76	0xbf054e10	-0.5207224
77	0xbf171300	-0.59013367
78	0x3f0d205a	0.5512749
79	0x3e215467	0.15754853
80	0x3e02a1e9	0.12757076
81	0x3ec073ab	0.37588248
82	0xbd9aef65	-0.07565192
83	0xbf2abc50	-0.6669359
84	0xbf4ddd73	-0.8041603
85	0xbe5cf882	-0.21579173
86	0x3f4437b1	0.7664748
87	0x3e08bf9d	0.13354345
88	0xbf25940c	-0.64679027
89	0x3e8bdb5e	0.273158
90	0x3f283129	0.6570001
91	0xbf2e09d0	-0.6798372
92	0xbed7227b	-0.42018494
93	0x3ed6935a	0.41909295
94	0x3eb3c229	0.3510907
95	0x3ec9a49c	0.393834
96	0xbe481be3	-0.19541888
97	0xbe62180d	-0.22079487
98	0x3ea54289	0.32277325
99	0xbf2b6aa2	-0.66959584
100	0xbf2797fb	-0.6546628
101	0x3e8539ae	0.2602057
102	0x3e24d5ea	0.16097227
103	0xbdc2a9bf	-0.09505033
104	0xbc0b2114	-0.008491773
105	0xbf90a6f4	-1.130095
106	0x3e9c96f2	0.30583912
107	0x3f67c3e3	0.90533274
108	0x3d9ba300	0.07599449
109	0x3e273063	0.16327052
110	0xbd5fb20f	-0.05461317
111	0x3f5f7b62	0.8729764

layers.1.self_loop_weight f4 [32, 32]
0	0xbe7c810e	-0.24658605
1	0xbe171b29	-0.14756455
2	0x3d0dc12a	0.034608044
3	0xbec0060a	-0.37504607
4	0x3ebb7e82	0.36619955
5	0xbe16ad43	-0.14714532
6	0xbea77c9b	-0.32712254
7	0xbe071166	-0.1319023
8	0xbda24bb4	-0.079245955
9	0x3eaed07a	0.3414343
10	0xbe934b1a	-0.28768235
11	0x3de9b17b	0.11410805
12	0x3de8b0b4	0.113618284
13	0x3e44b386	0.19209108
14	0x3da1fd94	0.07909694
15	0xbef9ee28	-0.4881451
16	0x3d944fae	0.0724176
17	0x3e6a5cad	0.22886916
18	0xbccbd82f	-0.024883358
19	0x3daccb28	0.084371865
20	0xbe45898a	-0.19290748
21	0x3ea7de2a	0.32786685
22	0xbda48bf8	-0.080345094
23	0x3e8308be	0.25592607
24	0x3ec02510	0.37528276
25	0xbec24996	-0.37946767
26	0x3da600b5	0.081056036
27	0xbe9111a8	-0.28333783
28	0xbb933a88	-0.0044930615
29	0xbdd64e47	-0.10464149
30	0x3e951eb3	0.29124984
31	0x3e0e569b	0.13900225
32	0xbc347037	-0.011013082
33	0xbcafb7d4	-0.02144996
34	0x3ee3e29d	0.4450883
35	0x3e2d4d05	0.16923912
36	0xbdec5f4e	-0.115416154
37	0xbf0ab834	-0.5418732
38	0xbe3cd6a5	-0.18441255
39	0x3e941ae6	0.28926772
40	0x3cec32d1	0.028832825
41	0x3df0e796	0.117629215
42	0xbe89f20a	-0.26942474
43	0x3d2d22fc	0.04226969
44	0xbf3bf297	-0.7341704
45	0xbe8d3049	-0.275759
46	0xbc5ea6d3	-0.013589579
47	0xbeba80f0	-0.36426497
48	0xbe3a72a6	-0.18207797
49	0xbf3de453	-0.7417652
50	0xbe31b240	-0.17353153
51	0xbd76fdff	-0.060300823
52	0xbf2a64ea	-0.6656023
53	0xbf1ada3a	-0.6048924
54	0xbdeee7dd	-0.11665318
55	0xbc58545b	-0.013203706
56	0xbcce03cc	-0.025148295
57	0x3e4fb926	0.20285472
58	0xbd75ba38	-0.059992045
59	0x3e3bb973	0.18332462
60	0xbe2cd1ee	-0.16876957
61	0x3c1f1030	0.009708449
62	0xbd322d70	-0.043500364
63	0xbe0684d7	-0.13136612
64	0x3e76debe	0.24108407
65	0x3e719974	0.23593694
66	0xbdb142b8	-0.08655304
67	0x3edc4e87	0.43028662
68	0xbec16873	-0.37775
69	0xbc93d948	-0.018047944
70	0x3f0fb36a	0.5613314
71	0x3ea3a7c5	0.31963935
72	0xbdb9c06c	-0.09069905
73	0x3e934aec	0.28768098
74	0xbe8abc2d	-0.27096692
75	0xbe46800b	-0.19384782
76	0xbe4441c5	-0.19165714
77	0xbdf278ce	-0.11839448
78	0xbe16e186	-0.14734468
79	0x3ea3d00d	0.31994668
80	0xbe509fc6	-0.20373449
81	0x3ea91975	0.33027235
82	0x3e6c3c55	0.2306989
83	0x3ed7de2d	0.42161694
84	0x3e0a50d8	0.13507402
85	0xbe4a62d5	-0.19764264
86	0xbe143f77	-0.14477335
87	0x3dc4914c	0.09598026
88	0x3e8bdf02	0.2731858
89	0xbe16af71	-0.14715363
90	0xbe60a001	-0.21936037
91	0xbd393128	-0.045212895
92	0x3e673bea	0.22581449
93	0xbe7bd46f	-0.24592756
94	0xbe9407e8	-0.28912282
95	0xbc8aa81c	-0.016925864
96	0x3db1dbf3	0.0868453
97	0x3dd4b19f	0.10385441
98	0xbdde3d91	-0.108515866
99	0x3e83f9a4	0.25776398
100	0xbec9e44b	-0.39431986
101	0x3e4c1d8c	0.19933146
102	0x3d8d46f3	0.06898298
103	0x3ea9e883	0.33185205
104	0xbe476c35	-0.19474871
105	0x3d94d269	0.07266695
106	0x3d9439a5	0.07237557
107	0x3e807247	0.25087187
108	0xbb75ffa8	-0.0037536416
109	0x3e587e7d	0.21142001
110	0x3e0bb4ba	0.1364316
111	0xbe19a57c	-0.15004534
112	0x3e7dd8c3	0.2478972
113	0xbe90ba9e	-0.28267378
114	0x3e1ae1aa	0.15125147
115	0x3da4da9c	0.08049509
116	0x3dd796e8	0.1052683
117	0x3e3f2726	0.18667278
118	0x3c4dd176	0.012562146
119	0x3e86012c	0.2617277
120	0xbe5b2f25	-0.21404703
121	0x3e805913	0.25067958
122	0x3e53b1a0	0.20673227
123	0x3d85a00f	0.065246694
124	0x3e1e280c	0.15444964
125	0xbda9e34b	-0.08295306
126	0x3e698fb2	0.22808722
127	0xbe812394	-0.25222456
128	0x3e8b65a8	0.27225995
129	0x3ea93eb5	0.33055654
130	0x3e0151cb	0.12628858
131	0xbec7c524	-0.39017594
132	0xbe28958a	-0.16463295
133	0x3f0c6e5f	0.5485591
134	0xbf43f365	-0.76543266
135	0x3e88c31a	0.2671135
136	0x3ebe58ae	0.37177032
137	0xbda67503	-0.08127787
138	0x3eb84ada	0.35994607
139	0x3e6e582e	0.23275825
140	0x3d30f7ae	0.043204956
141	0xbf39b0ea	-0.72535574
142	0xbfae157f	-1.360031
143	0xbdfa074c	-0.12208423
144	0xbc10a336	-0.008827975
145	0x3e1876c5	0.14889057
146	0x3ea59075	0.32336774
147	0xbcb2b4b7	-0.021814687
148	0x3e837276	0.25673264
149	0xbd73e0e9	-0.059540663
150	0x3e50e6c2	0.20400527
151	0x3e1fd95a	0.15610257
152	0x3ecfbc42	0.40573317
153	0xbf0aa936	-0.54164445
154	0xbf0c7b76	-0.54875886
155	0xbe38d121	-0.18048526
156	0x3e197494	0.14985877
157	0x3f020195	0.50783664
158	0x3e933760	0.28753185
159	0x3ec86420	0.3913889
160	0xbdb818db	-0.08989116
161	0x3e9a957f	0.3019218
162	0x3ba965f7	0.005169626
163	0xbe964361	-0.2934828
164	0x3e34f2fa	0.17670813
165	0xbea3c923	-0.31989393
166	0xbf0acfc4	-0.54223275
167	0xbb61c5a6	-0.0034450083
168	0xbe4c6892	-0.19961765
169	0xbe1ccf8c	-0.15313548
170	0x3de42064	0.111389905
171	0x3e8dba43	0.2768117
172	0x3bf1f7d1	0.0073842783
173	0xbeee9f88	-0.46606088
174	0xbecf2478	-0.4045751
175	0xbe9788f2	-0.29596668
176	0xbe807edf	-0.25096795
177	0x3e2b27b4	0.16714364
178	0xbe9d3c23	-0.30709943
179	0x3c107915	0.008817931
180	0xbd10543d	-0.035236586
181	0x3e9dc2bb	0.3081263
182	0xbe6ed192	-0.23322132
183	0xbe3a39c4	-0.18186098
184	0x3e85f529	0.26163605
185	0x3eb6e7e5	0.35723796
186	0x3e9a3107	0.3011553
187	0xbea0c5f8	-0.31401038
188	0xbeebf982	-0.46088797
189	0x3c3c622b	0.011498014
190	0x3d9a8eaf	0.07546746
191	0x3e9e2585	0.30888
192	0xbe5a9ade	-0.2134814
193	0x3c5c2ab1	0.013437913
194	0x3a2907ac	0.00064479816
195	0xbe4e4ac9	-0.20145716
196	0x3dfed18f	0.12442314
197	0x3e25f03b	0.16204922
198	0x3dfa7ce3	0.122308515
199	0xbe2d44b1	-0.16920735
200	0x3e7dda4b	0.24790303
201	0x3e780242	0.24219611
202	0xbdff33ef	-0.124610774
203	0x3e37ef6b	0.17962424
204	0xbe355925	-0.17709787
205	0x3d1d16e9	0.038351927
206	0x39712566	0.00022997483
207	0xbd9f34df	-0.07773756
208	0xbd8285ea	-0.06373198
209	0xbb1d733c	-0.0024024984
210	0xbc04dbdf	-0.008109062
211	0xbe633ea8	-0.2219187
212	0xbe4e6623	-0.2015615
213	0x3dbf7abe	0.09349583
214	0xbddf1b9c	-0.10893938
215	0x3e719cb4	0.23594934
216	0x3e2c6f65	0.16839369
217	0x3da6669f	0.08125042
218	0x3d28b11a	0.041184522
219	0x3dcc77d4	0.09983793
220	0xbe81979a	-0.25310975
221	0x3d729b1d	0.05922996
222	0x3d15ebff	0.036602017
223	0xbe614f32	-0.22002867
224	0xbe2fca16	-0.17166933
225	0x3c5d34d3	0.013501364
226	0xbd2564a6	-0.04037919
227	0xbe1af698	-0.1513313
228	0x3da43fc1	0.080199726
229	0xbeb168bd	-0.3465022
230	0x3e516d42	0.20451835
231	0xbe87edd6	-0.26548642
232	0x3e2882ee	0.16456196
233	0xbed54919	-0.41657332
234	0xbf51cc55	-0.8195241
235	0x3efc35fa	0.4925993
236	0xbed6574d	-0.4186348
237	0x3dacff4e	0.08447133
238	0x39a45a1a	0.00031347648
239	0x3cfc517a	0.03080057
240	0xbf25f76e	-0.6483067
241	0x3e38c858	0.18045175
242	0xbe6e9e92	-0.23302677
243	0xbefa462a	-0.48881656
244	0xbe8ab44e	-0.27090687
245	0xbe8a84ce	-0.27054447
246	0xbd8c13aa	-0.06839688
247	0xbf139011	-0.576417
248	0x3daf8cd1	0.085717805
249	0xbe6ad147	-0.22931395
250	0xbea28a8b	-0.31746325
251	0x3ef16dad	0.47153988
252	0xbe58c7c5	-0.21169956
253	0x3e23cf0b	0.1599695
254	0xbe0b50f5	-0.13605101
255	0x3e3bd72c	0.183438

layers.1.bias f4 [32]
0	0xbcdb5b41	-0.026776912
1	0xbd448cad	-0.04798572
2	0x3c4ebdac	0.0126184635
3	0x3d79e00d	0.061004687
4	0xbe156f14	-0.14593154
5	0x3dc68d10	0.09694874
6	0xbcd9e4e0	-0.026598394
7	0x3e43ee63	0.19133906
8	0xbd2d22d0	-0.042269528
9	0x3c9e9d49	0.019362109
10	0x3e1491e9	0.14508785
11	0x3c421690	0.0118462
12	0xbc1ddb9d	-0.009634879
13	0x3ddab86b	0.10679706
14	0x3e2141e0	0.15747786
15	0xbccbcd74	-0.024878241
16	0x3c407323	0.011746201
17	0x3db4c353	0.08826318
18	0x3e2291fe	0.15876004
19	0xbcd04b16	-0.025426429
20	0x3db80ed4	0.08987203
21	0xbceda71e	-0.029010352
22	0x3d2c91c9	0.04213122
23	0x3d2839e6	0.04107084
24	0x3d8a206d	0.06744466
25	0xbb1d774f	-0.0024027412
26	0xbd3d118c	-0.046159312
27	0xbd41fd26	-0.04736056
28	0xbd88be31	-0.06676901
29	0x3db9f6d7	0.09080284
30	0x3cb371ca	0.021904845
31	0xbe098b7e	-0.13432118
