state/WN18RR_v3/WN18RR_v3.0.ckpt (torch, 95737 bytes, 19 tensors)

encoder.conv1.weight f4 [32, 32]
000000 2a ae 3a be c8 90 e9 3d df 2d a1 bd 55 c6 62 be
       -0.18230501 0.11404568 -0.07870077 -0.2214597
000010 b0 55 79 3e e4 51 2d be f6 85 82 3e ad 01 1d 3e
       0.24349093 -0.1692577 0.2549283 0.1533267
000020 a8 d2 a9 bc 22 b9 60 be e9 8d 79 be d1 9d 60 3e
       -0.020730332 -0.21945623 -0.2437054 0.21935202
000030 6d 09 37 3e 3b bc 20 bd 87 b0 62 be 45 5f 8d be
       0.1787469 -0.03924201 -0.22137652 -0.27611747
000040 95 7b 56 be 01 a3 88 bc 15 35 51 bd f1 1f 71 bd
       -0.2094558 -0.016679289 -0.051076014 -0.058868352
000050 8f 9d b4 3e 1d 73 98 3d 83 2b 63 3d 7c 8c 4e 3e
       0.35276458 0.07443831 0.055461418 0.20170778
000060 70 27 95 bd d2 f9 34 be 5b 6b b3 3c aa f8 b7 be
       -0.07282913 -0.17673424 0.021901777 -0.35931903
000070 54 f8 16 3d 80 f3 2f 3e dc cd 02 3e e6 96 81 be
       0.036857918 0.17182732 0.12773842 -0.2531044
000080 a9 63 88 be dc cd 0a 3e fc 89 65 3d 3e e1 6d 3e
       -0.26638535 0.13555092 0.056039795 0.23230454
000090 1c 13 3e 3d 8e cc 90 bd ac 83 6d bd 05 52 37 be
       0.046404943 -0.07070266 -0.0579869 -0.17902382
0000a0 2f f3 a7 be d0 ff 86 3e a4 b2 24 be 78 1e 4e bd
       -0.32802722 0.26367044 -0.16083771 -0.050322026
0000b0 fd 99 4a be ac 7d 6a 3d b2 25 7d be 75 2b 6c be
       -0.19785304 0.057248756 -0.24721411 -0.23063453
0000c0 56 72 30 3d 4e ee 89 3e 0f 32 58 be 61 d7 39 bd
       0.04307779 0.26939625 -0.21112846 -0.045371417
0000d0 9c 7f 83 be a0 8b 36 bd f6 7e 9f bd 3c 52 bf bd
       -0.25683296 -0.04456675 -0.07787888 -0.09341857
0000e0 60 cd b1 bd 51 3c 6d be 92 5e 69 be 32 7f 38 3e
       -0.0868175 -0.2316754 -0.22789982 0.18017271
0000f0 ff 3e a3 bd 7f fd 8e bd ac 09 6e be 45 53 9a be
       -0.07971 -0.06981944 -0.23245877 -0.30141655
000100 34 fc 3d be 24 49 5a 3e 6e b2 03 bc ed 65 41 3e
       -0.18553239 0.21316963 -0.008038146 0.18886538
000110 14 a5 3f 3e 36 a8 8d be 10 08 aa bd a0 b1 15 3e
       0.18715316 -0.27667397 -0.08302319 0.1461854
000120 57 8d 14 be 4a 45 92 be b3 90 72 3e b1 7d 72 be
       -0.14507042 -0.28568488 0.23688011 -0.2368076
000130 b9 62 81 be 22 f4 ca bd 42 2c 42 be 5f ef af be
       -0.25270632 -0.09909846 -0.18962196 -0.34362313
000140 db a8 4f 3e c6 b2 1a 3d 4e b9 48 3c 7c 5d a6 3d
       0.20279257 0.037768148 0.012251211 0.081232995
000150 bc d4 2a bd f3 99 23 bd ed 6e 0e be 3a 32 6b be
       -0.041706786 -0.03994174 -0.13909502 -0.22968379
000160 22 b2 c9 bd 95 ca 5d 3d 98 bc b5 bd 33 cd 1e 3d
       -0.09848429 0.054148275 -0.08873862 0.038769912
000170 e5 2c a0 bd 64 06 1d bd 77 0b 23 3e 46 8d fe bd
       -0.07821063 -0.038336173 0.15922342 -0.124292895
000180 1d ed ab be de 07 37 3c 8b dd 60 be 62 58 bd 3c
       -0.3357934 0.011171309 -0.21959512 0.023113433
000190 4f 63 4e be 26 3f 80 be 39 4e 73 be cb fb 91 3d
       -0.2015507 -0.25048178 -0.23760308 0.07128104
0001a0 b4 b4 1f bd f6 4f 02 3e 13 c2 51 be c1 e9 1d 3e
       -0.03899069 0.12725815 -0.2048419 0.15421201
0001b0 f5 57 b8 3c 16 09 3e be a2 4c fc 3d a5 f6 13 3e
       0.022502879 -0.18558154 0.12319304 0.14449556
0001c0 1b 8e 74 3e 67 21 97 be 38 1b ba 3c 59 33 e8 3d
       0.23882334 -0.2951767 0.022718057 0.11337919
0001d0 65 6d 66 be f6 1a 97 be ca ec b0 bc a7 f0 16 3e
       -0.22502668 -0.29512757 -0.021597285 0.14740239
0001e0 d2 38 65 be 7b 40 35 3e 36 e7 be bd 19 8b b5 bc
       -0.22384956 0.17700379 -0.09321444 -0.022161053
0001f0 79 27 fc 3b 51 d2 16 be fa d6 bc be 40 88 9a be
       0.007695135 -0.14728667 -0.36882764 -0.30182076
000200 df e3 1c be a9 dc 17 be aa d4 4d be 75 70 41 3e
       -0.15321301 -0.14830269 -0.20100656 0.18890555
000210 f8 98 40 be 10 91 5a 3e a1 a7 0d bd 5f a9 74 3d
       -0.18808353 0.213444 -0.03458369 0.059731837
000220 83 0c 7c bd f5 53 a5 be a1 c3 3d be 14 c4 55 3e
       -0.06153537 -0.32290617 -0.18531658 0.20875579
000230 b4 a9 57 3e 52 ab 5a 3e e7 2a b7 3d 35 d8 5e be
       0.2106083 0.21354416 0.0894373 -0.21762164
000240 90 2a 85 bd c6 1a 9e 3e ae e2 88 3d 1c 06 97 bb
       -0.06502259 0.30879802 0.06683861 -0.0046088826
000250 b3 e0 b8 3c 18 40 24 3e 66 cb ee bd 70 28 57 be
       0.022568082 0.16040075 -0.11659889 -0.2101152
000260 2f 60 6d be f1 13 5c be 81 26 6d be 18 16 8c be
       -0.23181222 -0.21491982 -0.2315922 -0.27360606
000270 65 12 31 3e 90 60 e2 bd b9 84 09 be 82 2f 66 3e
       0.17292173 -0.11053574 -0.13429536 0.2247906
000280 c5 d0 d6 3c 1c d1 7e 3e 6f 24 d4 3d d1 84 3f be
       0.026222596 0.24884456 0.10358512 -0.18703009
000290 e5 91 43 3e 88 e2 ba 3c b0 d0 8d 3e 85 b0 f2 bd
       0.19098623 0.022813097 0.27698278 -0.11850075
0002a0 cc 25 35 be 2a 26 36 be 9b 06 5b be d9 f8 27 3e
       -0.176902 -0.17787996 -0.21389239 0.16403522
0002b0 92 72 91 3e fb 72 4d 3e c9 a0 3c be d9 96 3c be
       0.28407723 0.20063393 -0.1842071 -0.18416919
0002c0 c8 9c 15 3e 42 df 1f be 47 4f 3f 3e e0 65 27 be
       0.14610589 -0.1561251 0.18682586 -0.16347456
0002d0 fd 00 90 3e bb 89 30 3e 13 92 17 be 59 1d 59 bc
       0.28125754 0.1724004 -0.14801817 -0.013251626
0002e0 f4 4c be bc 50 f7 bf 3e b7 95 b7 3e 8d b5 80 3e
       -0.023230053 0.37493372 0.3585641 0.25138512
0002f0 7b b7 cc bd 51 ce aa bd 8b 5b aa 3e 3e 33 5c be
       -0.099959336 -0.08340133 0.33272967 -0.21503922
000300 d8 89 00 3d 37 c2 eb 3d fd 58 83 3e 6d 78 8e 3e
       0.031381458 0.11511653 0.2565383 0.27826253
000310 19 24 4f 3e 80 95 ac be a3 91 48 3e 8a 36 5e 3d
       0.20228614 -0.3370781 0.19586806 0.05425123
000320 4b 68 84 be ce 53 94 be 3b 8f f4 bd a6 2d 45 be
       -0.2586082 -0.28970188 -0.119413815 -0.19255695
000330 1e 45 49 bd 69 ca bb bd e9 5f 6e be 72 3a a5 3d
       -0.04913818 -0.09169466 -0.23278774 0.08067788
000340 d9 e2 0e 3e 36 90 0a be 67 7e 93 3e 1a 3c ab bd
       0.13953723 -0.13531575 0.28807375 -0.08361073
000350 81 60 03 bd 85 b8 b1 3c a5 ef 9e bd e5 6b ff 3d
       -0.032074455 0.021694431 -0.07760552 0.12471751
000360 cf 7b 13 be eb 58 49 be db cb 81 3d ab a4 5c be
       -0.14402698 -0.19662826 0.063377105 -0.21547191
000370 2e a3 93 bd 1b d6 68 be b2 d7 4c 3e fb d3 85 3e
       -0.072088584 -0.22737925 0.20004156 0.2613829
000380 b0 2a 30 be db 0a 27 3b 21 bc a9 bd 2a bc 41 be
       -0.17203784 0.0025488648 -0.08287836 -0.18919435
000390 dc 4b 95 3d 00 d0 f2 bc 5c dc 02 3e b9 c0 01 be
       0.0728986 -0.029640198 0.12779373 -0.12671174
0003a0 32 b4 98 3e ed e0 4a 3d 27 07 99 bd 00 45 5d be
       0.29824978 0.049530912 -0.07472067 -0.21608353
0003b0 6f f4 bd bb 5f e3 f2 bd 7c 75 9a 3e f9 ab 44 3e
       -0.005796961 -0.11859774 0.30167758 0.19206227
0003c0 74 26 84 3d 84 c3 4a 3d b4 d7 95 be 18 29 1a 3d
       0.06452647 0.049502864 -0.2926613 0.037636846
0003d0 40 f5 9f 3d d9 e7 1d be 04 75 1d 3e 99 ab bf bd
       0.078104496 -0.15420474 0.15376669 -0.093589015
0003e0 4a d6 9c 3e 7f 31 48 3e 9e be b1 be ce df bd 3d
       0.3063224 0.19550131 -0.34715742 0.09271203
0003f0 c9 be 59 bd f9 ba e7 bd 2f b2 47 be 45 ea f2 bd
       -0.053160463 -0.11314959 -0.19501565 -0.118610896

encoder.conv1.bias f4 [32]
000000 f3 d1 86 3c 58 8a 28 bd d1 3d 48 3d ca 81 b1 bd
       0.016457533 -0.04114756 0.048887078 -0.086673334
000010 66 c0 f0 bc c0 cd 2f bc bb 1b 67 bd a5 97 a2 bd
       -0.029388618 -0.010730207 -0.05642293 -0.0793908
000020 c8 c0 12 bd 73 b4 40 bc c4 d4 b2 3b 51 78 9d bd
       -0.03582838 -0.011761772 0.0054574925 -0.07688964
000030 41 fe 9b bd cc 49 ad bd 87 77 8a bd 27 15 a8 bd
       -0.076168545 -0.08461341 -0.06761079 -0.082071595
000040 90 97 77 bd ce b3 e1 3b 7a 20 c3 bd d2 7f ad bd
       -0.060447276 0.0068878895 -0.09527679 -0.084716454
000050 b0 85 3a bd f1 68 d6 bc 0a cf 02 be 24 48 bc bd
       -0.04553765 -0.026173087 -0.12774292 -0.09193447
000060 5f 13 05 bd dc cf af bd 49 13 a3 bd 1e 3e a6 bd
       -0.032489177 -0.08584568 -0.07962663 -0.08117317
000070 23 b8 8e bd 6c 47 69 bd 65 da c8 bd fd 64 99 bd
       -0.06968715 -0.05695288 -0.098072805 -0.07489965

encoder.conv2.weight f4 [32, 32]
000000 ac bd 39 be 6e e0 22 be 64 bf 3e be 3d ee 46 3e
       -0.1813876 -0.15905926 -0.18627697 0.19426818
000010 b5 f6 e2 bd 4c 47 ad 3d be f4 a7 3e 51 89 76 bd
       -0.11082212 0.084608644 0.3280391 -0.06018955
000020 1a 06 a7 3d 7e 2e b0 bc 4e 9f ed 3c 6a da 88 3e
       0.08155461 -0.021506544 0.029006626 0.26729137
000030 3d e6 8f 3e 62 50 33 be ef 4d 88 3e 83 d8 2a bd
       0.28105345 -0.17511132 0.2662196 -0.041710388
000040 75 1a c4 be 19 84 3d be e1 8f fc bd 48 a7 14 3e
       -0.38301435 -0.18507423 -0.1233213 0.14516938
000050 11 0a 46 3c ee c0 66 bd 58 02 c3 3d b2 78 a3 3d
       0.012087361 -0.056336336 0.095219314 0.07982005
000060 c6 3c 62 bd 96 e2 8b be 96 d9 fb be 25 df ab bc
       -0.05523374 -0.2732131 -0.49189442 -0.020980427
000070 00 ec 89 3e e9 10 54 be 25 d2 9b 3e d5 54 20 bd
       0.26937866 -0.20709576 0.30433765 -0.039143402
000080 b3 f0 da bc e8 bd ad 3c 03 7d 9f 3d e4 dd f0 bd
       -0.026726102 0.021208718 0.07787516 -0.11761072
000090 8e fd 1b 3e 96 be ec bd 67 97 50 3e df 3e d5 bc
       0.15233442 -0.11559789 0.20370255 -0.026030956
0000a0 e0 03 d0 bd b7 1c 5c 3e a9 e5 64 3e 69 ff 03 be
       -0.10156989 0.21495329 0.22353233 -0.128904
0000b0 fb c2 37 be 2a f4 4a 3e 5d c2 51 3e 96 d0 31 bb
       -0.17945473 0.19819704 0.204843 -0.0027132384
0000c0 70 e4 ac bb 02 f4 0e 3e a3 bd 8f 3d f4 f0 46 bd
       -0.0052762553 0.13960269 0.07018592 -0.048569635
0000d0 ce b5 61 be ae 6d 93 bd 77 97 df bc fa 85 39 3e
       -0.22042009 -0.07198654 -0.027293904 0.18117514
0000e0 a3 b0 53 be 13 c2 5d bd fd fe 5c 3e c9 16 4c 3b
       -0.2067285 -0.05414016 0.21581645 0.003114151
0000f0 2a 61 80 be a4 62 23 be a8 4d 95 be 46 25 aa be
       -0.2507413 -0.15955597 -0.2916081 -0.33231562
000100 45 f2 04 3e 61 1c 60 be d8 ac 21 3d 78 32 9f bd
       0.12983043 -0.21885826 0.039471477 -0.07773298
000110 07 7b 42 3e 80 db 25 bd aa 11 7e 3e 3b 58 8e be
       0.18992244 -0.040492535 0.24811426 -0.2780169
000120 82 1e 5f bd 8a 74 82 bd 0a 7d 78 be 84 dd de bd
       -0.054472454 -0.06369884 -0.24266449 -0.108820945
000130 68 e1 7c be 24 9a 9b be 21 41 56 3e 73 41 35 3d
       -0.2469536 -0.30391037 0.20923282 0.04425187
000140 bc d0 16 bd b1 44 5d be b3 20 6a 3c 29 59 b8 be
       -0.03682016 -0.21608235 0.014290023 -0.36005524
000150 cc c9 aa 3d e0 fe 8c 3e 59 e1 86 3d 54 aa a2 3b
       0.08339271 0.27538204 0.065859504 0.0049641524
000160 c1 21 a6 bd cd 19 6c 3e 86 d1 89 be bc 7e 3f be
       -0.08111907 0.23056717 -0.26917666 -0.18700689
000170 6b 00 1e bd b4 73 b0 be 25 d2 1c 3e 18 72 05 3d
       -0.038574617 -0.34463274 0.15314539 0.03257951
000180 26 d6 83 3d 44 50 93 bd 3f 84 23 be 3c 00 88 be
       0.0643733 -0.07193044 -0.15968417 -0.2656268
000190 c7 5c 2c be e8 79 42 be f2 dc 25 be 1d c9 72 be
       -0.16832267 -0.18991816 -0.16197565 -0.23709531
0001a0 56 e4 ef 3d ad 77 de 3c 92 a3 3a be 0c 0d ac 3d
       0.117134735 0.027156675 -0.1822646 0.08400926
0001b0 3e 71 20 be a7 d5 96 3e 19 93 75 bd c3 71 bc bd
       -0.15668198 0.2945988 -0.059954736 -0.09201386
0001c0 6c b9 e7 3d 46 e3 0b be e2 a8 96 be e1 21 c3 be
       0.11314663 -0.13660917 -0.29425722 -0.38111785
0001d0 19 f1 0b 3e ce 85 84 be b8 39 64 bc cf f2 08 be
       0.1366619 -0.25883335 -0.013929777 -0.13373874
0001e0 d5 91 f9 bd c2 14 ae 3c b5 10 26 3e 68 7f e0 3d
       -0.121860184 0.021250132 0.1621731 0.10961801
0001f0 32 6e bf 3d 65 cb 14 3e f4 40 76 3d d4 90 34 3e
       0.0934719 0.14530714 0.060120538 0.17633373
000200 c0 0b 86 3e e4 61 90 be fd c9 0a be a3 db 02 3d
       0.2618084 -0.28199685 -0.13553615 0.031947743
000210 da c5 64 3e 9f 80 28 be 47 0b 93 3e 2e 7f 46 3e
       0.223411 -0.16455315 0.2871954 0.19384453
000220 d5 fd 81 be 30 39 f9 3d 7e b1 da 3d e1 05 74 bd
       -0.2538897 0.12169111 0.10678385 -0.05957592
000230 e2 67 41 be b5 e0 35 be f6 33 19 3e 87 8b b1 bd
       -0.18887284 -0.177615 0.14961228 -0.08669191
000240 2a 2c 8a be 87 9f 49 be d8 69 e7 3b a5 f5 ac be
       -0.2698682 -0.19689761 0.007062178 -0.33781162
000250 d4 01 5c 3e c1 22 ff bd a2 73 39 3e f8 77 29 be
       0.21485072 -0.12457801 0.18110517 -0.1654967
000260 82 ab 6a be a3 a3 c5 bd 64 1e 50 be 84 f7 23 bc
       -0.22916988 -0.09650352 -0.20324093 -0.010007743
000270 c2 0c 7f bd be 49 49 3d a5 77 4f be a6 84 4c 3e
       -0.062268026 0.04914259 -0.20260485 0.19972476
000280 f7 9d a7 3e cd 69 8f 3d c4 5e 25 3e ab 00 62 3d
       0.32737705 0.07002602 0.16149431 0.05517642
000290 62 73 8c 3e 95 6b 7a bd 86 9b 10 be 7c a6 12 bd
       0.2743178 -0.061137754 -0.14121827 -0.035803303
0002a0 a2 8c 21 3d f4 68 14 be 58 3b 60 be e8 d8 8f be
       0.03944076 -0.14493161 -0.21897638 -0.28095174
0002b0 03 b9 85 3e 1b 16 e7 bd da 19 b1 bd 91 03 94 3e
       0.26117715 -0.11283513 -0.08647509 0.2890897
0002c0 dd e4 98 bd d8 01 4e bd 6b 34 fb 3d 52 85 95 be
       -0.07465527 -0.050294727 0.12265857 -0.29203278
0002d0 b1 09 6e 3e 4f 72 53 3e 5b 93 c1 bd e7 bf ce bc
       0.23245884 0.20649074 -0.09451934 -0.02523799
0002e0 3a ed 8a 3e f5 14 f3 bd db 1f 94 3d 80 40 32 3e
       0.27134115 -0.118692316 0.072326384 0.17407417
0002f0 cc 8f be 3d 21 86 ba be 56 c9 98 3d fa 30 2e 3b
       0.09304771 -0.36430457 0.07460277 0.0026579485
000300 a6 d5 88 3e ad 3f dd 3d b2 a6 43 3e a1 86 98 3e
       0.267255 0.10803161 0.19106558 0.29790214
000310 31 cc eb bd 9a d0 04 3e 98 d7 4b 3e 57 2d 46 be
       -0.11513556 0.129702 0.19906461 -0.19353233
000320 16 3f 99 be bc 2a 4c bb ce 1a 85 be 3b 45 c4 bd
       -0.29930943 -0.0031153401 -0.25997013 -0.09583517
000330 a7 d3 84 be 51 73 12 3e a5 db 5e be 09 36 7a 3e
       -0.25942728 0.14301802 -0.21763475 0.24434675
000340 a8 9a 81 3d 7b ab d3 bd 29 e6 1e 3c 8e 89 62 3c
       0.063283265 -0.10335442 0.009698429 0.013826741
000350 ca e6 b6 be 2b da db bc e0 44 69 3e 1f 51 de 3d
       -0.35722953 -0.026837429 0.2278018 0.10855316
000360 21 d7 8f be 26 f2 b3 bd 7e fa ba be 3d 21 94 3e
       -0.28093818 -0.087864205 -0.36519235 0.2893161
000370 90 85 e0 bd 29 21 27 3e 70 64 6c 3e 32 0c 47 be
       -0.10962975 0.16321243 0.23085189 -0.19438246
000380 0c a8 34 be f9 0a 3d bd 08 d7 72 3e fb fb 1b be
       -0.1764223 -0.046153042 0.2371484 -0.15232842
000390 33 a1 25 bc 24 2f 24 3e c2 8c 1b 3e 0b 7a 26 be
       -0.010109234 0.16033608 0.15190414 -0.16257493
0003a0 49 fd 54 be 1f 1e 68 be 40 d7 8b 3d 81 4e f7 3c
       -0.20799746 -0.2266774 0.06828165 0.0301888
0003b0 2e a0 93 bc d5 4d 4a bd e3 93 a8 bd 9a 65 d9 3d
       -0.018020716 -0.049390633 -0.08231332 0.10615082
0003c0 4c b4 67 3d 1a bb 48 be 79 e8 69 bc ec 46 88 3c
       0.05656843 -0.19602624 -0.014276617 0.01663538
0003d0 11 4f f3 bd a3 40 34 3e 22 17 cd bd 91 85 14 be
       -0.11880315 0.17602782 -0.10014178 -0.14504077
0003e0 fe 1f 59 be cd 17 19 bd d9 82 e5 3d c4 ce 7e be
       -0.2120361 -0.037376214 0.11206598 -0.24883562
0003f0 ea 13 78 3e 66 68 72 3e b1 e9 a9 3d 86 69 61 be
       0.24226347 0.23672637 0.08296526 -0.2201291

encoder.conv2.bias f4 [32]
000000 65 25 87 3d f6 4a 0c be 4b 3e f6 bd 66 6e 69 be
       0.06598929 -0.1370047 -0.120236 -0.2279602
000010 12 d6 bb bc 4b e0 9a bd c4 19 40 3d cb 6e fb 3d
       -0.022929225 -0.07562312 0.046899572 0.122769915
000020 8e 60 6e be b6 17 d6 bd b8 3e ac 3d de 3f 62 3e
       -0.2327902 -0.10453741 0.084104 0.22094676
000030 07 81 55 be bd 9c 38 be 2c 99 08 3e 62 3a 81 bd
       -0.20850001 -0.18028541 0.1333968 -0.06309964
000040 ec 40 b8 bd 9d e9 e2 bd 06 81 86 bd 85 e4 4b be
       -0.08996758 -0.110797144 -0.06567578 -0.19911392
000050 65 cf f7 bd f9 29 0e 3e a6 cb 39 3e ac 51 6b 3d
       -0.12100104 0.13883199 0.18144092 0.057450935
000060 6a 41 a4 bd 62 cf 03 be 2d 3f 97 be 6f 7a 89 bd
       -0.08020289 -0.12872079 -0.29540387 -0.067128055
000070 9a 98 b5 3d 3c f6 46 bd 3a 0a c5 bc 7f 99 b3 bd
       0.08866997 -0.04857467 -0.024052728 -0.087695114

layers.0.weight f4 [4, 32, 32]
000000 ad 13 75 bd 14 20 49 3c f8 79 8c 3d 98 bf 05 be
       -0.059833217 0.012275714 0.06859201 -0.13061368
000010 e2 1d 1c be 48 88 5d 3d 72 ea ed 3b de 51 ba 3d
       -0.15245774 0.054085046 0.007260614 0.09097646
000020 cb 4e b1 3d f8 22 af 3b ed 1d d1 3c 8c 90 b9 3d
       0.08657607 0.005344745 0.025526965 0.09060773
000030 44 0d ef 3d e0 8d 27 3d 7e 2f 32 3e 58 9f 8a bd
       0.11672452 0.040906787 0.1740093 -0.06768674
000040 21 b9 f4 bd 43 96 94 bc 3d ac 91 bd 03 05 5c bc
       -0.11949373 -0.018138057 -0.0711293 -0.013428929
000050 02 36 25 3d b3 53 d0 bd 3d f7 85 3d f4 e2 80 3d
       0.04033471 -0.10172214 0.065412976 0.06293288
000060 7e 96 f3 3d 21 fc 5d 3e a5 ae b8 3d 67 52 03 be
       0.118939385 0.21678211 0.09017686 -0.12824403
000070 28 f9 94 3d d6 39 62 3b a4 2e 45 bd 27 3b 19 be
       0.07274085 0.0034519336 -0.048140183 -0.14963971
000080 cc 47 45 be 56 27 ca 3d 8c 42 86 3c 57 0f 86 bd
       -0.1926567 0.09870784 0.016389154 -0.065458946
000090 a8 23 d8 3d 03 56 11 bc 76 2b 9a be 69 8e 3d 3d
       0.10553676 -0.008870604 -0.30111283 0.04627839
0000a0 52 f0 60 3d 30 c4 02 be 71 d4 02 3e bf f0 10 3d
       0.054916687 -0.12770152 0.12776352 0.035385843
0000b0 40 ed db 3d 1c 0f 5c 3e 11 17 15 3e 2f 7f 5a bd
       0.10738611 0.21490139 0.1455958 -0.053343948
0000c0 34 af a0 bd 08 2b 4f 3e 83 9f 03 be f7 33 e4 bd
       -0.07845917 0.20231259 -0.12853818 -0.11142724
0000d0 ff e7 83 bc cd 7a 22 be 73 cf 71 3e da dd 33 bd
       -0.016101835 -0.15867157 0.23614292 -0.043912746
0000e0 3d 79 d1 3d 32 4f 41 bc 3f f4 21 3e 40 46 2d bd
       0.102282025 -0.011798667 0.15815829 -0.042303324
0000f0 4d 71 b2 3c bd 2f 84 3d ee 44 02 bd a1 26 e1 bd
       0.021782542 0.06454418 -0.031804018 -0.10993696
000100 97 83 9b bc 63 42 30 be 5f 5c 53 3c c6 6f 0b 3e
       -0.018983645 -0.17212825 0.012900441 0.13616857
000110 0f 9f ba 3e bd 54 3a 3d 51 20 93 3d 20 97 cc 3c
       0.36449477 0.04549097 0.07183898 0.024974406
000120 8b a6 10 be 82 15 16 3e 2e d0 30 3e bb 89 1e be
       -0.14126031 0.14656642 0.17266914 -0.15482228
000130 bf 04 0a 3e dc c7 8f bd 44 a1 b3 3d c4 08 d3 3c
       0.13478373 -0.07020542 0.08770993 0.025761016
000140 da 8f 5e bd 29 98 3e be 9a d7 9d bb 5f 1b 4f bd
       -0.054336406 -0.18612732 -0.0048169615 -0.050563212
000150 8f 49 09 be 46 28 7c bb ab 11 cd bd c9 19 b7 3c
       -0.13406967 -0.0038476153 -0.100131355 0.022351163
000160 d7 9b b0 bc 59 04 0f bd 42 d8 4d bd ea 95 79 bd
       -0.021558685 -0.034916256 -0.050255068 -0.060933985
000170 3d b0 f0 bd d0 30 9d 3d 9a 2e da 3d 8e 33 36 3e
       -0.11752365 0.07675326 0.1065342 0.17793104
000180 12 7c 46 bd 29 2b 39 3d 18 f3 d7 3d 0e c5 d4 3d
       -0.048458166 0.045207176 0.10544413 0.10389148
000190 af 2c a1 3e 1e 27 18 be 6e 32 7a be 04 27 2a b9
       0.31479403 -0.14858672 -0.244333 -0.00016226998
0001a0 4c 93 13 3e a7 13 9c 3c 8b b7 6c 3e ea a6 15 3d
       0.14411658 0.01905234 0.23116891 0.036536135
0001b0 05 65 b9 3d ae fd 8b 3e ba ba 95 3d 06 51 8c 3a
       0.09052471 0.2734198 0.07311006 0.0010705299
0001c0 91 2d 31 bd b7 53 c0 3d ce 3f d2 bd 59 76 33 be
       -0.043256346 0.09390967 -0.10266076 -0.17525615
0001d0 28 3e 89 bd 3f e3 9c bd 94 9a ea 3d 4c b4 68 be
       -0.067013085 -0.07660531 0.11455265 -0.22725028
0001e0 fc 9e 89 bc 98 90 38 be 70 b4 98 3c ee f9 ec ba
       -0.016799442 -0.18023908 0.018640727 -0.0018079856
0001f0 3a bd cf bd 5e 2c 39 bc 14 1e f4 bb ab d4 f6 3d
       -0.10143514 -0.011302082 -0.0074498747 0.12052282
000200 93 05 ed bb be 1a 03 3e 27 49 57 3d 23 83 3b be
       -0.0072333305 0.1280317 0.052559998 -0.18311743
000210 c8 a9 5a 3d 26 fb fc bd d0 a8 aa bd 5b 48 a0 bc
       0.053384572 -0.1235259 -0.0833298 -0.019565752
000220 62 a5 1a 3e 8e 59 a6 bd 93 c7 42 3c f5 27 0d 3e
       0.15102151 -0.0812255 0.0118884025 0.13784774
000230 85 c5 92 bc 3b 4f ac 3d b9 0c b0 3c 0e 46 0b bc
       -0.01791645 0.084135495 0.021490442 -0.008500589
000240 25 fd 2b bd ee c0 2b 3e c4 62 1d be 69 fd 0c bd
       -0.041989464 0.16772816 -0.15369707 -0.03442136
000250 a1 8f 82 3d ba 14 a9 bd db 9a 15 3e 60 e2 c1 3c
       0.06375051 -0.082559064 0.14609854 0.023667514
000260 11 ff 9c bc 85 dc 5f 3d 1d 55 ea 3d 10 3d b7 bb
       -0.019164594 0.054653663 0.11442015 -0.005591996
000270 b7 11 41 bd d8 ae 32 be c0 e6 73 3b 2e 94 c6 bd
       -0.047136035 -0.1744951 0.0037216395 -0.09696232
000280 02 f7 bd 3d 58 ef 0f be be e8 d2 bc 75 18 2c 3e
       0.092756286 -0.14056146 -0.025745746 0.16806205
000290 0f 3d b9 3d 8d 74 e3 3b 7c 53 e5 3c 11 1a fc 3d
       0.09044849 0.006941384 0.02799391 0.12309659
0002a0 f2 24 cb bd 59 2e 03 bd 78 f4 0e 3e 6e 95 28 be
       -0.09919156 -0.032026622 0.13960445 -0.16463253
0002b0 8f 45 ef 3c cf d7 97 3d 33 1c 58 3d 2a a7 ae 3d
       0.029207973 0.07414209 0.052761268 0.08527978
0002c0 39 b8 f9 3d 77 72 0a be f3 66 24 3e e4 c6 df bc
       0.12193341 -0.13520227 0.16054897 -0.027316518
0002d0 bc 7e dd bd b9 74 f3 3d 24 ab d1 bd be cb 32 bd
       -0.10815188 0.118874975 -0.102377206 -0.043651335
0002e0 d6 7e 38 be 73 1a 82 be 86 e0 6b 3d 85 c2 82 3d
       -0.18017134 -0.25410804 0.05758717 0.06384758
0002f0 29 45 15 3d d6 22 c5 3d f4 fb 05 3e f4 fb 78 3e
       0.03644291 0.09625785 0.13084394 0.24314862
000300 f5 c3 5f bd 8e ff 2f bc fc ce 39 bd cb a9 13 bd
       -0.05463024 -0.010742081 -0.04536341 -0.0360506
000310 b1 6b 24 be 90 bd ca 3d b0 fa 9e 3e c4 c5 71 3e
       -0.16056706 0.098994374 0.31050634 0.23610598
000320 28 28 e1 3c de 07 ff 3d 64 84 27 3d fa bf 0c bd
       0.027484968 0.124526724 0.040897742 -0.03436277
000330 95 a2 6e 3d c0 94 34 be 4c 6a 01 be 96 3a 41 bd
       0.05826052 -0.17634869 -0.12638205 -0.047175013
000340 3b bd 70 3c 27 6e 61 bd 67 eb 9d 3c 8e a7 08 3e
       0.014693554 -0.05503669 0.019277288 0.13345167
000350 e2 b6 9b bd c5 b0 16 bd 8d b6 a7 bc f9 f0 3d 3d
       -0.076032415 -0.036789674 -0.02047279 0.046372388
000360 4f 70 99 bd 88 c8 4d 3e 9b d7 28 bd 1f 06 ac 3d
       -0.07492124 0.20096028 -0.041221242 0.08399605
000370 05 b2 1d 3d 32 b7 ee bd 00 18 15 3e 11 4e 4e be
       0.03849985 -0.116560355 0.14559937 -0.20146967
000380 9d dc 65 bd af 83 0d 3e 31 5e f5 bb 2f fa 8b be
       -0.056118596 0.13819765 -0.007488035 -0.27339312
000390 44 09 1c be fe 39 ae bc fc 7a fb bc 38 1b 30 3d
       -0.1523791 -0.021267887 -0.030698292 0.042994708
0003a0 47 67 3f 3e 44 83 fa bb c6 c9 4d be 0f 8d 21 3c
       0.18691741 -0.0076450426 -0.20096502 0.009860291
0003b0 6f ce 0a be df 48 8d 3d d6 63 11 3e ca 55 09 be
       -0.1355531 0.06898665 0.1419824 -0.13411632
0003c0 df 88 18 bd e0 26 92 3d 40 41 87 bd ca bb f0 3c
       -0.037239905 0.07136321 -0.06604242 0.02938642
0003d0 51 b3 af 3d ee 9d 0b be 50 5d 81 3d 2c b7 43 bd
       0.08579124 -0.13634464 0.06316626 -0.04778211
0003e0 27 df 3e 3e 38 47 61 3e eb b0 d9 3d 7a 07 82 bd
       0.18639813 0.21999824 0.106294475 -0.06349082
0003f0 89 c8 ce bd 90 cb 9f bd 92 a2 cb bd 5b 1a 45 bd
       -0.10096843 -0.07802498 -0.09943117 -0.048120838

layers.0.w_comp f4 [22, 4]
000000 f1 53 25 bf 62 75 31 bd 6a 6a c9 be 08 8c 4b 3f
       -0.6458121 -0.043324836 -0.39339 0.79510546
000010 b4 7b 0b be c5 b6 24 3d 46 71 c1 be cb cc e4 be
       -0.13621408 0.040213365 -0.37781733 -0.44687495
000020 96 d4 0d 3f 77 a1 33 3f bf b5 92 3e 49 4f 21 bf
       0.55402505 0.7016825 0.28654286 -0.63011605
000030 46 71 31 3f 97 1f f1 3e ed d0 23 bf 0f c4 a4 3e
       0.69313467 0.47094414 -0.6399067 0.3218083
000040 3a 8f d0 3e bb ee 24 3d 93 57 f1 3e 32 fb d5 3e
       0.40734273 0.040266734 0.47137126 0.4179321
000050 a3 6c b8 3d 49 ee 94 3e f4 ec ce be 26 34 e4 3c
       0.09005096 0.29088047 -0.40415156 0.027856898
000060 70 82 37 bf b8 74 88 be 89 89 ef be 75 67 65 3e
       -0.71683407 -0.2665155 -0.46784618 0.22402747
000070 8b 37 79 bc fd f2 6b 3d b4 ae d9 be f7 4b 7d 3d
       -0.015210996 0.05760478 -0.425161 0.061840024
000080 59 ec 21 be ea 59 a1 3e ae f2 34 be 35 cc b2 3e
       -0.15812816 0.3151391 -0.176707 0.34921423
000090 b7 64 c8 bc 29 bf d5 3e ae 72 c5 3e 8a 08 b6 3e
       -0.024462087 0.41747406 0.38564056 0.3555339
0000a0 1b df 55 3f 86 3a cb 3e 17 22 06 be 78 13 8f 3e
       0.83543557 0.39693087 -0.13098942 0.2794454
0000b0 4b bc 94 be ec fa 24 3f 28 60 31 3f ee c5 77 be
       -0.29049906 0.64445376 0.6928735 -0.24196598
0000c0 f7 14 87 bd 4e 62 68 be 81 ce f1 be e8 2f 3f bf
       -0.065957956 -0.2269375 -0.47227862 -0.74682474
0000d0 24 71 d4 3e 4a d1 bb 3c c8 ad 39 3e de 3c a6 3e
       0.4149257 0.022926945 0.18132699 0.32468313
0000e0 fa 78 4a be 0e 77 f4 3e 1e d9 ec be c4 9a 37 be
       -0.19772711 0.47747082 -0.46259397 -0.17930132
0000f0 b7 62 89 bd 12 12 0e be 90 bf 49 3e 22 61 a2 3d
       -0.067082815 -0.13874081 0.19701982 0.07928683
000100 e7 a4 86 bc 7e d8 e0 be 5d 53 83 3e 7f e4 34 be
       -0.016436053 -0.4391517 0.2564954 -0.1766529
000110 53 3b 94 bd 42 7d 2e be 2e 1d 96 3f 20 e7 05 3d
       -0.07237878 -0.1703997 1.1727655 0.03269112
000120 9b d2 25 3f d3 ce 01 bf 42 2b 25 3d 2e 24 0c bf
       0.64774483 -0.50706214 0.040324457 -0.54742706
000130 ca a2 1c be 78 6c cd 3e 8d 48 88 bd 34 86 23 bf
       -0.15296474 0.40121818 -0.06654463 -0.6387665
000140 e5 a0 17 3e 53 af 22 3f ca 78 8f 3e 4e a7 52 be
       0.1480747 0.63548774 0.28021842 -0.20571634
000150 57 2f be bd cd 76 36 bf 2f d5 fa 3e cc b3 f2 be
       -0.09286373 -0.71275026 0.4899077 -0.474028

layers.0.self_loop_weight f4 [32, 32]
000000 d7 a2 9f bd 15 da 68 bd d0 a5 e8 bd 40 7c 00 3e
       -0.07794731 -0.056848604 -0.11359751 0.12547398
000010 1b 4b 26 bb d6 bf bc be 83 55 ff 3d 93 e3 40 be
       -0.0025374356 -0.3686511 0.12467482 -0.18836813
000020 14 ec 3b 3e 53 09 89 be 85 4f d0 be d3 47 d8 3e
       0.18351775 -0.26764926 -0.4068567 0.42242298
000030 e0 4c 8a be 1e 66 80 3e 85 22 cb be de d2 6c be
       -0.27011776 0.2507791 -0.39674774 -0.23127314
000040 31 4d c9 be 87 31 8c 3e 07 58 d4 3e 0a 90 94 3e
       -0.39316705 0.27381536 0.4147341 0.29016143
000050 8d a5 77 be 45 bf 40 be a5 d0 5e 3e 85 b7 a1 bd
       -0.24184246 -0.18822964 0.21759279 -0.07896332
000060 83 ea 56 3e 1f dd 73 bd 3b 6e df bd 26 05 5c bd
       0.20987897 -0.05953705 -0.10909697 -0.053715847
000070 74 b8 00 3e 41 bf e1 be 7e 50 28 be 04 44 99 be
       0.12570363 -0.44091228 -0.16436955 -0.29934704
000080 5e 24 d1 3e 07 99 a2 3e e7 0c ea 3e 80 5f 9d 3d
       0.40848058 0.31757376 0.4571297 0.07684231
000090 c9 cb eb 3e a1 0f b8 3e ec 00 7c 3e b4 16 cd bd
       0.46053913 0.35949424 0.24609727 -0.10014096
0000a0 cc 48 5a be 54 dd b0 3d cb 63 59 be d1 f7 99 3e
       -0.21316832 0.08635965 -0.21229474 0.3007188
0000b0 d9 f1 80 be a9 2a a2 3d 44 30 bb 3e c1 2d 30 3e
       -0.25184515 0.07918293 0.3656026 0.17204954
0000c0 40 70 86 3e af 36 42 3e 23 53 88 be 15 3d a1 3d
       0.26257515 0.18966173 -0.26625928 0.078729786
0000d0 91 3d 0e 3d 56 4e 7e 3e a3 de 92 be 49 43 81 be
       0.034726683 0.2483457 -0.28685483 -0.25246647
0000e0 bc 34 43 3e 5c 77 b8 be 0d 26 ae be 86 cd 45 3d
       0.19063085 -0.36028564 -0.34013405 0.048291706
0000f0 cc 7a 15 bd fb 06 80 3e d1 47 91 bc b7 cb 9e be
       -0.03649406 0.25005326 -0.01773444 -0.31014797
000100 79 02 7e 3e f6 4a 76 be 2c 0e 91 3e 11 e2 99 be
       0.2480563 -0.24052033 0.28331125 -0.30055287
000110 8d da 0d 3e da 19 1a 3b f5 f4 aa bd e2 bf c7 bd
       0.13852902 0.0023513944 -0.08347503 -0.097533956
000120 81 66 91 be 82 3f 80 3e 02 4c a0 be cd bd 00 3e
       -0.28398517 0.25048453 -0.3130799 0.12572403
000130 6e 5b af bd fa bb 54 be 70 10 ec 3d c5 47 96 be
       -0.08562361 -0.20774832 0.11526573 -0.2935163
000140 6c 8e 1f 3b dd 6a 27 3e cf 60 77 3d a2 95 50 3e
       0.0024346365 0.16349359 0.06039506 0.2036958
000150 cf c5 de 3e bf ae 34 3d e9 03 3e bd bf bb b3 3e
       0.4351029 0.044111963 -0.046390448 0.35104176
000160 1c b3 1c bd 9a f3 b6 be 55 68 a6 bd 3d 48 8d 3e
       -0.03825675 -0.35732728 -0.081253685 0.27594176
000170 2b 78 8a be 19 64 c4 be c5 e1 7f 3e 51 ca 77 be
       -0.27044806 -0.38357618 0.24988468 -0.24198271
000180 f9 93 2b 3d 3f a0 3d 3d 36 52 a4 bd 37 a9 fb bd
       0.041889165 0.0462954 -0.08023493 -0.122881345
000190 25 aa 6c 3e 29 d9 ba 3e ce 95 62 be 9c 30 3a 3e
       0.2311178 0.36493805 -0.22127458 0.18182606
0001a0 77 7a af be f2 6e 45 be d8 48 3c 3e e4 43 43 be
       -0.3427312 -0.19280604 0.18387163 -0.19068867
0001b0 73 6c 4f 3e 13 c7 f0 3d ba 03 3f be 58 ea 9b 3e
       0.20256214 0.117567204 -0.18653765 0.30452228
0001c0 7b dc db 3e 3f 4a a8 3e 62 89 5b 3e 79 93 9c be
       0.4294165 0.32869145 0.21439126 -0.30581263
0001d0 1a 0a d5 bd 02 59 8c be ee e4 48 3d 3f 34 6a 3e
       -0.10402317 -0.27411658 0.04904645 0.22871493
0001e0 2b 94 19 be 54 ab 46 be 11 96 bd 3e 7e 8a 24 be
       -0.14997928 -0.19401294 0.37028554 -0.16068456
0001f0 74 d7 44 bd d3 03 6f 3e f4 a6 62 3e 35 6f 4c 3e
       -0.048057035 0.23341303 0.22134 0.19964297
000200 7a b0 9a be 4b f9 1f 3e 2f 16 5a 3e c0 f5 7b bd
       -0.30212766 0.15622441 0.21297525 -0.061513662
000210 ac 48 b3 3e 6e 3f 40 3e b3 d4 5e 3e e8 7e ef 3d
       0.35016382 0.18774197 0.21760826 0.11694127
000220 57 29 86 3d e4 e6 93 3e a1 73 0c 3e ef 6b 04 be
       0.06550854 0.28887093 0.13715984 -0.12931798
000230 6a 88 03 3d ee a6 9d be ad 64 eb 3d a2 e3 94 3e
       0.032112516 -0.3079142 0.11493812 0.2907992
000240 90 51 d3 3e ba 11 94 be 8c 2a 8e bd f9 7b cc be
       0.41273165 -0.28919774 -0.06941709 -0.39938334
000250 25 36 3d 3e 68 2d 9d be 8b e8 59 3e 46 1f 8d 3d
       0.18477686 -0.30698705 0.21280114 0.068907306
000260 a7 47 12 3e c7 23 62 be f3 57 da 3d 24 3a b7 3e
       0.14285146 -0.2208396 0.10661306 0.35786545
000270 3a 43 e7 bd ed 81 bd 3e 43 e2 00 3e 44 e3 ac 3e
       -0.11292119 0.37013188 0.12586312 0.3376714
000280 c3 5e 3a 3e ee 3b 17 bd e6 20 45 be 99 5e bf bd
       0.18200211 -0.036922388 -0.19250831 -0.09344215
000290 6c a9 58 3e f4 bf 10 bd 11 99 8d be a0 3b d4 be
       0.2115838 -0.03533931 -0.27655843 -0.4145174
0002a0 61 6e 02 be e7 45 91 3e 42 0b f7 bd ab 81 8f 3d
       -0.12737419 0.28373644 -0.12062694 0.07007154
0002b0 3f 2f 79 3e 92 3f df be e9 a3 71 be d2 6f 80 bd
       0.24334429 -0.43603188 -0.23597683 -0.06271328
0002c0 2d bf 85 3e 09 4b 8a 3e 5e 7c 7b 3e 3a 7a b4 be
       0.26122418 0.27010372 0.24559161 -0.352495
0002d0 cc 43 48 be 69 37 20 3e 3c 4f c7 be a3 f9 8c be
       -0.19557112 0.15646137 -0.3892764 -0.27534208
0002e0 57 e9 97 3d 82 f6 a4 3e c1 5f 83 3e 68 9c b9 bb
       0.07417553 0.3221932 0.25658992 -0.005664397
0002f0 64 b6 70 be 3e ee 8f 3e e2 b2 ae 3e 91 59 ab be
       -0.23507077 0.28111452 0.34120852 -0.3346677
000300 12 ac cb bd 2a f2 80 be 3e 00 18 3e d5 59 64 be
       -0.09944929 -0.25184757 0.14843842 -0.22299893
000310 f2 21 46 3c bc fb 65 3e b2 4b 9e 3c 8f 20 c1 3e
       0.012093054 0.2245931 0.019323204 0.37720153
000320 8f bc 59 be c0 aa bc bd a2 e7 b0 3e 11 26 9a 3c
       -0.21263336 -0.092122555 0.34551722 0.01881698
000330 ab b1 60 be bf 65 9e 3d cb 2c ca be 9a f6 e7 bb
       -0.21942775 0.0773425 -0.394873 -0.0070789577
000340 91 c2 de be f0 5c 5a be fe 20 10 be f3 45 af bc
       -0.43507817 -0.21324515 -0.14075086 -0.02139566
000350 a0 70 0d be 12 1f b9 3e 68 e1 40 3e bf 00 0b be
       -0.13812494 0.36156517 0.18835986 -0.13574503
000360 a7 72 b9 be 13 40 9b be 57 f3 21 be 09 0f 4c be
       -0.36220285 -0.30322322 -0.15815483 -0.1992761
000370 0e 89 c6 be b9 17 83 3c 36 24 62 3e 50 ba 9a 3e
       -0.3877644 0.016002523 0.22084126 0.3022027
000380 bb c4 a3 be 1e 71 dd be f6 0e c2 3e e0 7b 54 3e
       -0.3198603 -0.43250364 0.3790204 0.2075038
000390 ba 4b 05 bc 6f 5c b1 be b0 65 9f 3e 43 38 d3 3e
       -0.00813573 -0.34640834 0.3113227 0.41253862
0003a0 8e d9 0e bd 86 d3 19 be a0 74 5a 3e e9 aa 8a bd
       -0.034875445 -0.15022096 0.21333551 -0.0677088
0003b0 30 fd ee 3d 50 0e 99 be c0 1e b5 be cb 3d ea 3d
       0.116693854 -0.29893732 -0.35375023 0.11437567
0003c0 b7 f4 c5 3e e3 b1 ea 3d ca 1e 27 be 67 10 b5 3e
       0.38663265 0.114597104 -0.16320339 0.35364076
0003d0 21 a7 a8 be 76 4f ea 3d 74 b9 05 be b5 86 b2 3e
       -0.3294001 0.11440937 -0.13059026 0.34868398
0003e0 e5 39 03 3e 4c 3a 44 be 6c bd 92 3e cf 42 ac 3e
       0.12815054 -0.19162863 0.28660142 0.3364472
0003f0 66 ea b0 be 03 ce 03 3e 6a 5a 50 be b2 5d 07 3e
       -0.34553832 0.12871556 -0.2034699 0.13219336

layers.0.bias f4 [32]
000000 67 45 93 bd c6 aa 78 3d bc e8 5b bd 76 ed 20 3e
       -0.07190972 0.060709737 -0.05368875 0.15715584
000010 5a 0b 89 3d 98 62 69 bd da bf 03 3e de 4c a0 bd
       0.06691618 -0.056978792 0.12866154 -0.07827161
000020 af fd e9 bc 0c 6f 3c bd 06 af 53 bd ed 76 74 bd
       -0.028563349 -0.04600434 -0.051680587 -0.05968373
000030 78 b4 72 bc ac c9 be 3c 89 7a 15 bd e4 2d cf bd
       -0.014813535 0.023289524 -0.03649381 -0.10116175
000040 a6 60 62 3c 81 5a 86 bd 7b 8d 97 bd 8a eb 09 3d
       0.013816988 -0.06560231 -0.07400032 0.033671893
000050 8e be e4 bc 72 2b 4a bd a7 b4 44 bc 02 04 ea bc
       -0.027922895 -0.04935784 -0.0120059615 -0.028566364
000060 77 fe 02 bd 07 4a 08 3e f0 2c a2 3d fe cc 79 bd
       -0.031980958 0.13309489 0.079187274 -0.06098651
000070 ae 87 55 bc 88 5a 60 bb 45 50 86 bc ec a2 a7 3d
       -0.013032837 -0.0034233648 -0.016395697 0.08185372

layers.1.weight f4 [4, 32, 32]
000000 96 4c 82 3d 5d 67 9a 3b 49 94 97 bd f0 2c 70 bd
       0.06362264 0.004712029 -0.0740133 -0.058636606
000010 c1 07 34 3c 21 b2 eb 3c df 2e a3 3d 66 3c fc ba
       0.010988177 0.028771462 0.07967924 -0.0019244074
000020 d0 d1 c5 3a b1 95 25 bd a1 11 c3 bd 64 76 07 3d
       0.0015092436 -0.04042596 -0.09524847 0.03307189
000030 fd 63 22 3d eb b4 97 3c b0 49 e1 bc 5a c1 1c be
       0.039646138 0.018518886 -0.027500957 -0.15308133
000040 b7 29 94 bd a8 18 6d 3d 32 44 b0 3c a8 11 be bc
       -0.07234519 0.057884842 0.021516893 -0.023201779
000050 66 29 0e be cb e9 d7 3d 5f 2a 2b 3d 27 7d 3e be
       -0.1388298 0.10542639 0.041788455 -0.1860243
000060 4b c7 5c bd e6 7a a3 bc 98 8b b3 3d c6 54 35 be
       -0.053900998 -0.019956063 0.0876686 -0.1770812
000070 90 08 b4 bc ce 34 ef bd ad 51 80 bd e8 82 ab 3d
       -0.02197674 -0.116799936 -0.062655784 0.08374578
000080 aa ec 69 bc 14 46 3f 3e 0a f5 88 bd c8 76 88 3d
       -0.0142776165 0.18679076 -0.066873625 0.06663281
000090 fc 9b 57 be f2 5e 13 be bb b4 25 3e 7b b0 38 3d
       -0.21055597 -0.14391688 0.16182224 0.04509018
0000a0 ec 2c 0d be 42 a4 fd 3c 04 5d 56 be 13 8f 53 bd
       -0.13786668 0.030962113 -0.2093392 -0.051650118
0000b0 53 94 8d 3e f0 d3 76 bd ff e9 26 3e 7b 8c 9d 3d
       0.27652225 -0.060260713 0.163002 0.0769281
0000c0 33 3e e3 bd b7 7f 73 ba 29 70 27 3e dc 6a 1b be
       -0.11095848 -0.00092887454 0.1635138 -0.15177482
0000d0 13 cd 10 be 67 ad dd 3d 41 79 c7 3d b7 3f b0 3e
       -0.1414073 0.108240895 0.09739924 0.3442361
0000e0 93 a9 9f bd 7a a5 16 3c 1c 2e 3f 3d 50 68 34 3d
       -0.077960156 0.009194726 0.046674833 0.044044793
0000f0 1e 0f 28 be dc db 30 bd 69 a5 c5 bd 90 5f 20 3d
       -0.16412017 -0.043178424 -0.0965069 0.039153636
000100 ad 07 00 bd 66 92 25 be ae 52 3d bd 4a 30 89 bc
       -0.03125732 -0.16169128 -0.046221428 -0.016746659
000110 65 db 07 3e 0f f4 b0 bd 54 34 31 bd ad e9 73 bd
       0.13267286 -0.086403005 -0.043262795 -0.059549022
000120 3d 7c b2 3c 8b 0d 58 bd 32 2e b8 bb 55 63 87 bd
       0.021787757 -0.05274729 -0.0056207413 -0.06610743
000130 e3 9f 03 3e 49 46 86 3d f3 e6 1a bd e2 2c 7d bd
       0.1285396 0.065563746 -0.037817907 -0.06181038
000140 b0 f1 a7 bd 2b 11 4f 3e 36 2b 1d be 28 44 61 bd
       -0.08200395 0.20221393 -0.15348515 -0.05499664
000150 bc 85 96 bd 3f 20 56 3d 78 5f 11 3e 1c ea ca bc
       -0.073497266 0.052276846 0.14196575 -0.024769835
000160 04 2b 83 bc a6 37 d5 3d d4 7a 45 3d d2 c5 0d 3d
       -0.016011722 0.10411005 0.04821284 0.034612484
000170 66 57 55 3d f0 e1 9e bc 56 1c 01 be dd 31 2f bd
       0.052085303 -0.019394845 -0.12608466 -0.042772163
000180 52 60 0f 3e 4b 2b 78 be b0 8e fc 3d d7 c7 05 3d
       0.14001587 -0.24235265 0.12331903 0.032661285
000190 58 d6 a2 3d 97 0f 74 bd 1b bb 52 3c 0c 3f 21 3e
       0.07951039 -0.05958518 0.012861992 0.15746707
0001a0 3b 2a 95 3e b0 9e 2c be f6 87 7e 3c ce 85 8c 3e
       0.29133782 -0.1685741 0.015535345 0.27445835
0001b0 75 c4 e0 bd 1c 1c bd 3d 2c 9f a0 3e 9d b3 d9 3c
       -0.10974971 0.09233877 0.31371439 0.026574904
0001c0 98 a2 70 be b2 7f dd bd e9 3d 01 be 7a 0d 92 3d
       -0.23499525 -0.108153716 -0.12621273 0.07131477
0001d0 f6 21 d0 bc 51 9a f7 bd 29 66 fb 3d 91 71 fa bb
       -0.025406819 -0.120899804 0.12275345 -0.0076429327
0001e0 8c 6a 64 be 42 4c 2e be dd ac 85 3d 8b c0 3d be
       -0.2230627 -0.17021278 0.06527112 -0.1853048
0001f0 21 67 9f 3c 78 43 9c 3d e3 e5 d1 3d 7b dc 80 be
       0.019458355 0.07630056 0.102489255 -0.25168213
000200 49 cd f2 3e 9c 13 e9 be 41 71 5e 3e a3 a4 1e 3f
       0.47422245 -0.45522773 0.2172289 0.61969966
000210 6b b8 c1 bd 6c 49 38 bc a1 27 1c bd 62 5f 00 bd
       -0.09459003 -0.011247974 -0.03812373 -0.031340964
000220 f3 c3 03 be 4b 5d 4e 3c ff 2e 3c 3e bb 13 52 be
       -0.12867717 0.012595485 0.18377303 -0.20515339
000230 14 ea f1 be 38 df 0a bd cc 51 2b bd 4c 68 8f ba
       -0.472489 -0.033904284 -0.041826054 -0.0010941117
000240 f3 77 98 be db 02 19 be e4 4f af 3d 80 54 25 3c
       -0.29779014 -0.14942496 0.0856016 0.010090947
000250 b9 3e 57 3e de 74 44 bf 03 a3 d7 3d 97 d0 04 3e
       0.2102002 -0.76740825 0.10529139 0.12970196
000260 8b 97 59 be 83 c0 6c be 1a 34 d7 bc f7 04 9c be
       -0.21249215 -0.23120312 -0.026269961 -0.30472538
000270 7d 84 b3 3d 64 17 3e 3e 5d 22 d3 3b 2b 0e 36 be
       0.087655045 0.1856361 0.0064433054 -0.17778842
000280 8d 7f 03 3e 14 a8 59 bd 86 12 92 3c 18 22 87 bd
       0.12841626 -0.053138807 0.017831098 -0.065983
000290 7e 87 30 3b 63 a5 eb bd 57 eb 63 3d 2d 56 13 be
       0.0026936228 -0.115061544 0.05564436 -0.14388342
0002a0 c0 d6 7f bd db cf 83 3d 2e 29 b9 3b 3c 5f 99 bc
       -0.06246066 0.0643613 0.005650661 -0.01872217
0002b0 59 77 a5 bd 68 58 42 bb 20 7a 6c bc f9 63 ff 3c
       -0.080794044 -0.0029654745 -0.014433414 0.0311756
0002c0 ed c4 83 bd 27 bb e8 bb 56 d4 a1 3d 59 98 1b 3c
       -0.06434045 -0.0071023884 0.07901828 0.009496772
0002d0 98 63 e5 bd ec d0 1a 3e 92 cc bb 3c 6f e2 a2 3d
       -0.112006366 0.1511876 0.022924695 0.07953345
0002e0 91 ec 82 3b b3 89 48 bd 3e 37 1b 3e 51 e8 1d 3d
       0.003995486 -0.048959445 0.15157792 0.038551632
0002f0 25 dc ba 3c 89 2d 5e bd 28 21 ae bc 91 7a f5 3d
       0.022810051 -0.054242644 -0.021256045 0.11986268
000300 a2 0f 36 be e5 40 5d 3d 2c af a6 3d 85 37 22 3e
       -0.17779401 0.054016966 0.0813888 0.15841492
000310 ac aa 15 3f 7c 05 74 3c 61 ab 97 3c bb c4 9c 3e
       0.5846355 0.014893886 0.018514337 0.30618843
000320 f6 77 22 bf cf cf 94 bd 35 e4 83 bd 51 db 32 3e
       -0.63464296 -0.07266199 -0.064400114 0.17466475
000330 c0 ef 94 bd 8b c0 85 3e 2d 0a 76 3e 9c 4a ed 3d
       -0.07272291 0.2612346 0.24027319 0.11586496
000340 d0 18 39 3d 8f ee 65 be d9 04 78 3d 88 3e 6a 3e
       0.04518968 -0.22454284 0.060551498 0.22875416
000350 af f2 c6 3d d7 4e e3 be a1 88 8c 3e be 36 48 3e
       0.09714257 -0.44396088 0.2744799 0.19552132
000360 e8 a2 44 3e d2 04 12 bf dd 6a 65 bd 9a 35 64 3e
       0.19202769 -0.57038605 -0.056010116 0.22286072
000370 8d 93 cb 3d 78 9a 0d 3e 80 53 f1 3d f8 30 f7 3d
       0.099402525 0.13828456 0.117835045 0.12069887
000380 46 15 a9 3d 18 9e 39 be e4 3f e7 bc c4 d5 8b 3d
       0.08256011 -0.18126714 -0.028228708 0.06827882
000390 00 f9 53 3e f7 66 c4 bd 28 51 e3 3d 18 17 29 3e
       0.20700455 -0.095899515 0.11099464 0.16512716
0003a0 f7 eb 19 be 44 e4 1a 3a d6 04 72 3d e8 6c 2b 3d
       -0.1503142 0.0005908648 0.059086643 0.041851908
0003b0 aa a4 a6 3c 96 0b 97 3d 5f 84 b1 bd 4a 45 49 3d
       0.02034219 0.07375257 -0.08667826 0.049138345
0003c0 88 0c 05 be 67 52 da bc 25 c2 ea 3d a8 cf c2 3d
       -0.12993062 -0.02665062 0.114628114 0.095122635
0003d0 4a 7f cd 3d b2 5d 41 be b3 6f aa 3d cb 29 4f 3d
       0.10034044 -0.18883398 0.08322086 0.050576966
0003e0 14 d2 ee bd a9 5e e8 3c db f5 a0 bd 53 28 5c 3d
       -0.11661163 0.02836545 -0.07859393 0.053749394
0003f0 8d 14 a6 bd 6e 49 47 3e 97 7c 97 3a f0 24 42 3e
       -0.081093885 0.19461605 0.0011557516 0.18959403

layers.1.w_comp f4 [22, 4]
000000 5c 9e 52 be ff d2 74 3f 68 04 22 3f 14 ec 37 be
       -0.20568222 0.95634454 0.63287973 -0.1796115
000010 ab 99 2c be ac b7 0e bf df c4 0f 3f fd 72 16 bc
       -0.16855495 -0.5574901 0.56159776 -0.009182689
000020 0b d2 1b 3f de 7e 0a bf 4b 0d 13 bf d7 42 84 bf
       0.60867375 -0.54099834 -0.5744216 -1.0332898
000030 99 0e 99 be 2c dd c9 be 3f 76 e9 3e a7 2d 3e 3e
       -0.2989395 -0.39426553 0.45598027 0.18572102
000040 cd 66 f7 be 56 7d 4d be 5f 91 70 3e f2 c0 c9 be
       -0.48320618 -0.20067343 0.23492955 -0.39405018
000050 38 a4 8c bd 3f f1 59 be 86 14 8b 3e 30 24 ee be
       -0.0686726 -0.21283434 0.27164096 -0.46511984
000060 01 8d d5 be 94 bf db 3e c4 a0 4a 3e 50 48 1a bf
       -0.4170914 0.429196 0.1978789 -0.6026659
000070 98 0f 9e 3e 94 2b 28 be 21 0d 5b 3d 6f 1e 10 3f
       0.30871272 -0.16422874 0.053479318 0.5629644
000080 6c 22 dc be 8a c3 74 bd 9a 91 15 3f eb dc 19 be
       -0.42995012 -0.059756793 0.58425295 -0.1502568
000090 a4 5d f9 be fa 0e 3b bf 84 eb 21 bf ed c2 ee be
       -0.48704255 -0.7306973 -0.63249993 -0.46633092
0000a0 47 80 eb 3e ad 6b 22 bd 51 30 58 3e 3b 12 c5 bd
       0.45996305 -0.03965347 0.21112181 -0.09622618
0000b0 10 49 0a 3f 88 8a e6 bd a1 a4 35 3f b7 da 78 bf
       0.54017735 -0.112568915 0.7095433 -0.9720873
0000c0 9f f6 18 3f 44 55 32 3f d3 89 58 bd 61 2a e8 bd
       0.59751314 0.69661355 -0.052865814 -0.11336208
0000d0 80 68 5e bf 3c fd ca be 42 81 e8 be 0b 9f d9 3d
       -0.86878204 -0.39646327 -0.45411116 0.10626038
0000e0 21 45 d3 bd 63 4e 86 3d 56 90 0c bf 7e e1 fc be
       -0.1031592 0.0655792 -0.5490774 -0.49390787
0000f0 75 fd af be 6a de a2 3e 03 3a f3 3e e1 71 c2 3c
       -0.3437306 0.31810313 0.47505197 0.023735942
000100 ca 89 68 3d fe a8 dc be 38 5a f2 3e 81 3e ae 3e
       0.05677203 -0.4309768 0.47334456 0.34032062
000110 5c 40 85 3e 96 63 8e be 68 3e 16 3e 6b 81 89 bf
       0.26025665 -0.27810353 0.14672244 -1.074262
000120 25 bf 79 3f 8b ae 04 3d 29 a5 35 3e d0 10 ec be
       0.9755729 0.03239302 0.17738785 -0.46106577
000130 2c 68 cb 3d 2e aa ba be 26 f4 d6 be 03 a7 3d 3e
       0.099319786 -0.36457962 -0.41983145 0.18520741
000140 bd 42 1b 3f b1 de b5 3e d4 c1 81 3d 69 11 91 3e
       0.6064871 0.35521463 0.06335798 0.28333595
000150 74 f2 2e bf 68 20 ac 3a 05 d0 ba 3e 0b a8 0a 3f
       -0.68338704 0.0013132216 0.3648683 0.54162663

layers.1.self_loop_weight f4 [32, 32]
000000 fa 62 4a be b4 82 80 be 07 79 2f be 6b fd 8f be
       -0.19764319 -0.2509972 -0.17136012 -0.2812303
000010 16 49 1a 3e 84 96 27 be 48 6b 55 bd 4c bd ab 3e
       0.15066943 -0.16366011 -0.052104264 0.3354286
000020 31 78 56 3e 9c ec b6 3e df 03 db be 41 f3 9b bd
       0.20944287 0.35727394 -0.4277639 -0.076147564
000030 a9 f3 ee bd 20 18 8e 3e c1 85 bf bd 8a c2 b2 bd
       -0.11667568 0.2775278 -0.093516834 -0.08728512
000040 0a 36 da 3e 03 3f 30 3e e4 3d 79 bd c4 6d e0 bd
       0.42619354 0.17211537 -0.06085004 -0.10958436
000050 fc 57 fd bd d4 30 57 3e 3c 06 13 3e 22 bb 1a 3e
       -0.12370297 0.2101472 0.14357847 0.15110448
000060 10 56 83 3e 29 c2 37 be 69 3f be be dd e9 4c be
       0.25651598 -0.1794516 -0.37157753 -0.20011087
000070 bf 72 39 3e 8c 9e 8b be df 51 0e 3e 11 d9 10 3e
       0.18110178 -0.272694 0.13898419 0.14145304
000080 f0 f7 9f bd 44 f8 e3 3d 01 27 48 be ac be c4 3b
       -0.07810962 0.11131337 -0.19546129 0.006004175
000090 42 aa b6 3e 2c bc ed 3c 91 b2 db 3d 73 de 1d be
       0.3567677 0.029020391 0.10727418 -0.15416889
0000a0 95 22 f0 be 67 62 04 be f8 c4 d5 be e0 c5 30 bd
       -0.46901384 -0.12928163 -0.41751838 -0.04315746
0000b0 80 48 82 3e d1 4e 04 be d7 65 d9 3d b1 05 cb bd
       0.25445938 -0.12920691 0.106151275 -0.09913195
0000c0 dc 21 87 bd 93 ec f3 be b2 b9 ae 3d 4d 81 af 3d
       -0.06598255 -0.4764143 0.08531512 0.08569584
0000d0 ae 35 93 bd 3d 7b c8 3e d8 6b 0e bf d4 f4 9a 3e
       -0.07187973 0.39156523 -0.55633307 0.30264914
0000e0 9d 17 6e 3e 41 e0 aa 3d 1a 93 fe be 87 fd e1 3d
       0.23251195 0.08343554 -0.49721605 0.11034685
0000f0 1d ab 2e be 1d b7 f6 bd 54 b1 33 3e ce 8f 09 be
       -0.17057462 -0.12046645 0.17548114 -0.13433763
000100 9c 1b cf bd b1 61 eb be 82 d6 ce 3e 66 7e 3b be
       -0.10112688 -0.4597297 0.4039803 -0.18309936
000110 2f fb d9 3e b3 6a d1 3e a0 fa 9a 3e 66 e0 01 3e
       0.4257445 0.40901718 0.30269337 0.12683257
000120 77 8e 0e be 79 d4 aa 3b d4 64 17 bd f7 64 83 3e
       -0.13921534 0.005213317 -0.03696139 0.25662968
000130 72 05 2d be fa b5 a6 3d 7c d8 76 bd f0 be 91 be
       -0.16896608 0.08140178 -0.06026505 -0.28465986
000140 b7 b1 cd be da 78 a9 be 7f d7 25 3e d2 16 2e 3e
       -0.40174648 -0.33100015 0.16195486 0.17000893
000150 e7 38 c5 be 3c c4 f5 be a3 17 7d 3e 24 c1 09 3e
       -0.38519976 -0.48001277 0.24716048 0.13452584
000160 ab d0 bc 3e 4d a4 5e 3e a7 e0 fd be d3 86 74 ba
       0.3687795 0.21742363 -0.4958546 -0.00093279517
000170 2e 26 a3 bc d7 2c 83 3b 19 0a ba 3e e7 ae 7a 3e
       -0.019915666 0.004003148 0.3633583 0.24480782
000180 9c d7 89 bd 84 27 e0 bd aa 26 fd 3d d4 96 9d 3e
       -0.06730577 -0.10945037 0.1236089 0.30779135
000190 0f 4c 60 3e c2 e6 20 be 6b b2 05 3e ca b4 a6 3e
       0.21904014 -0.15713027 0.13056342 0.32559806
0001a0 3f 76 f2 3d bc 2d 68 3d 63 08 7d be 23 74 a5 3e
       0.1183896 0.05668424 -0.2471023 0.32315168
0001b0 0f 1e d1 3e 4e ce 05 be 2a d4 f6 3d 43 65 c1 3d
       0.40843245 -0.1306698 0.12052186 0.09443142
0001c0 dc 97 44 3e 43 cb 75 3d 7a 75 2b be 16 f9 80 be
       0.19198555 0.0600083 -0.16744033 -0.25190037
0001d0 ba a1 30 3e 07 a7 5c be 2b 0a 40 3d d8 4e 54 3d
       0.17249194 -0.21548091 0.046884697 0.051833004
0001e0 34 3b af 3e 59 71 01 3e 28 7a 65 bd f4 71 86 3e
       0.34224856 0.12640895 -0.0560247 0.26258814
0001f0 64 c8 69 3e 29 88 54 bc 27 e1 0b bf 49 11 63 3c
       0.22830349 -0.012971916 -0.5464043 0.013859102
000200 63 28 30 3e ae 11 4d 3d 60 eb a3 be 2b 97 1f be
       0.17202906 0.05006569 -0.32015514 -0.1558501
000210 88 f3 09 3e 1c 81 bd be 38 8f 4b 3c a4 bb 97 3e
       0.13471806 -0.37012565 0.012424283 0.29635346
000220 be db a5 3e 5f 2f dd 3e bb c8 22 3e 46 de d3 3b
       0.32394212 0.43200204 0.15896885 0.006465706
000230 7f 1f fb 3d 7b 04 c9 be ba 09 85 3d 35 42 19 be
       0.12261867 -0.3926123 0.06495996 -0.14966662
000240 df ca 12 3e f5 2c ec be 94 2c 87 3e bf 5e 8b be
       0.14335202 -0.4612805 0.26401198 -0.27220723
000250 b6 74 dd 3e 72 31 a0 be f9 1d b5 be 70 76 c8 bd
       0.43253106 -0.31287724 -0.3537443 -0.09788215
000260 de 5a b1 be 9a d4 17 be 31 f0 9c 3e 36 73 58 3d
       -0.3463964 -0.14827195 0.30652002 0.05284425
000270 c0 5f db 3d eb 0e 1a bb 17 23 5e be 0e 94 33 be
       0.10711622 -0.0023507427 -0.21693073 -0.17536947
000280 52 cf c6 bd b0 64 9d be 3d 18 43 be 7a aa 4e bd
       -0.09707512 -0.3074088 -0.19052215 -0.050455548
000290 54 3b 7b be 02 6f af 3e f2 29 e9 3d 35 7d 8c be
       -0.2453435 0.3426438 0.113849536 -0.27439275
0002a0 50 86 ad 3e 3a 2b 8f 3e d9 72 bc 3e 33 99 3b bd
       0.33891535 0.27962667 0.36806372 -0.0458004
0002b0 70 d1 a2 bd 7e 05 c9 3e 7a c1 75 bd dc 5c 3e be
       -0.07950103 0.39262003 -0.059998967 -0.1859011
0002c0 d9 6f 94 be 56 e2 0c 3e d3 d9 85 bd 56 68 57 3c
       -0.28991583 0.13758215 -0.06535687 0.013147434
0002d0 aa 37 db 3e 88 95 41 be b2 56 85 3e b8 cc 41 bd
       0.42815906 -0.18904698 0.26042706 -0.047314376
0002e0 d4 7d 94 be d5 bf 3e be a4 3e 7d 3e c5 7b c9 be
       -0.2900225 -0.18627866 0.24730927 -0.3935224
0002f0 3a c9 b2 3e 28 84 e8 3e 6a ad ee be dd b6 f6 be
       0.3491915 0.45413327 -0.4661668 -0.4818639
000300 42 6e 53 bd a9 38 df bd 41 87 87 be 63 41 90 3e
       -0.051618822 -0.10899479 -0.26470378 0.28174886
000310 40 13 ae bd 18 8e 55 bd ff c3 8f 3e 62 8d 56 3e
       -0.084997654 -0.052137464 0.2807922 0.20952371
000320 ed 86 ac bd 16 c6 2d be 0a ae 86 be e3 21 05 bd
       -0.084241726 -0.16970095 -0.26304656 -0.03250302
000330 6c cd 46 3b 52 3c 86 be 8f 97 d6 3d fe 41 3e 3e
       0.0030334843 -0.26217896 0.10478126 0.18579862
000340 61 93 13 be 24 42 87 3d 4e 92 3a 3d 19 36 3a 3e
       -0.1441169 0.06604412 0.045549683 0.18184699
000350 2e 7a 21 3c 3e 3d 87 be 85 e8 84 be c4 ad 15 3e
       0.00985579 -0.26413912 -0.25958648 0.14617068
000360 dc 77 20 3e d9 05 93 bd 72 a1 82 be 40 12 37 3e
       0.15670723 -0.0717885 -0.25513798 0.17878056
000370 f8 d4 99 3e b9 0f 0c be bc 7a e6 be 93 25 d1 3d
       0.30045295 -0.13677873 -0.45015514 0.10212245
000380 28 a3 32 3e e2 45 01 3e b0 af 34 3e c8 ed 2c be
       0.17445052 0.12624314 0.17645144 -0.16887581
000390 3a 01 3a bd 96 e3 db be e7 ed e8 bd 6b 21 9b be
       -0.045411326 -0.42947072 -0.11373501 -0.30298933
0003a0 ee 14 93 bd f4 a1 0a 3d 40 a8 75 bd ba fe cf 3e
       -0.071817264 0.033845857 -0.05997491 0.40624028
0003b0 4a af eb be fd b2 ae 3e 40 b5 00 bf 3a 2d a4 3e
       -0.46032172 0.34120932 -0.50276566 0.32065755
0003c0 84 51 61 3e 61 94 12 be ed e4 ae be 9c 1a a3 be
       0.22003752 -0.14314415 -0.34159032 -0.3185624
0003d0 7c e5 13 be a4 ce 5b be 54 f4 12 3f 69 b7 cb 3d
       -0.1444301 -0.21465546 0.57404065 0.09947092
0003e0 c3 a8 05 3d ac e1 8c be 4c 42 00 bf d0 0a 2a 3e
       0.032631647 -0.27515924 -0.5010116 0.16605687
0003f0 22 22 9e 3e 1c fc 27 be 72 40 02 bf d0 ca db 3d
       0.30885416 -0.16404766 -0.50879586 0.10732043

layers.1.bias f4 [32]
000000 dc 78 2a bd 2e a3 d3 3c e0 a2 a2 bd 97 0e d7 3c
       -0.041619167 0.025834646 -0.07941222 0.026252074
000010 0d dd 23 3e ac d6 1a bd 07 ea 1f be 82 9b 0c 3e
       0.16002293 -0.037802383 -0.15616618 0.13731197
000020 7c 58 a2 bd d7 ab 24 bc 09 e2 99 bd 63 96 05 bd
       -0.07927033 -0.010050735 -0.07513816 -0.032614123
000030 da bc ba 3d 51 89 70 bd c4 77 99 bd b8 77 b4 bd
       0.09118052 -0.058724705 -0.074935466 -0.08811897
000040 85 15 85 bd 5c 0b 5c 3d 6d 8d 45 bd f5 a5 55 bd
       -0.06498245 0.05372177 -0.048230577 -0.052160222
000050 0c 45 a2 bd 37 e4 96 3d 2a b7 ec bd e7 84 b8 3e
       -0.07923326 0.07367747 -0.11558373 0.36038896
000060 82 c7 e9 bc d3 a3 d4 3d 24 01 ac bd 31 40 a1 3d
       -0.028537516 0.103828095 -0.08398655 0.07873572
000070 da 7a 21 3d 1c e9 50 3c 72 4d e9 bd 82 b4 b7 bc
       0.0394238 0.01275089 -0.11391725 -0.02242494
